buildroot-external/rootfs-overlay/base/home/mycroft/.local/share/precise-lite/wakewords/en/computer.tflite (tflite, 21888 bytes, 10 tensors)

sequential/dense_1/MatMul f4 [1, 20]
-0.58614254 0.26572213 -0.4964679 0.25510132 -0.08625652 -0.5566347 -0.19460821 -0.37599328
-0.19587937 -0.102749325 0.30352777 0.20413823 -0.0091700265 -0.38615006 -0.38985348 -0.14918388
-0.29396254 -0.23888528 0.46098557 -0.090905935
00000000: 700d 16bf bb0c 883e 0a31 febe a49c 823e
00000010: 42a7 b0bd 9d7f 0ebf 6047 47be 3182 c0be
00000020: 9a94 48be 3d6e d2bd fe67 9b3e 9d09 513e
00000030: e13d 16bc 76b5 c5be e09a c7be a9c3 18be
00000040: 4282 96be 589e 74be 4d06 ec3e e42c babd

sequential/net/while/gru_cell/strided_slice_3 f4 [20]
-0.19604304 0.021001171 0.020531189 0.112237744 -0.10891627 0.056444567 0.022515433 -0.0068187127
-0.041564815 -0.055771746 -0.028681636 0.0039618113 -0.050006725 0.07688196 -0.016967898 -0.08603627
0.014214639 -0.05891117 -0.016356796 0.015612526
00000000: 82bf 48be a60a ac3c 0631 a83c e7dc e53d
00000010: 7e0f dfbd 6b32 673d 4972 b83c 826f dfbb
00000020: de3f 2abd ea70 64bd c0f5 eabc 15d2 813b
00000030: dad3 4cbd 4a74 9d3d 4300 8bbc c933 b0bd
00000040: 84e4 683c d74c 71bd b0fe 85bc aecb 7f3c

sequential/net/while/gru_cell/strided_slice_4 f4 [20]
0.19785954 0.33835873 0.08066616 0.47677535 0.15018855 0.34656656 0.47087783 0.10723663
-0.07102695 0.19013853 0.21039692 0.08637047 0.24606942 0.32199427 0.29215813 0.66676843
0.46780846 0.3528011 0.27922958 -0.051056284
00000000: b19b 4a3e 5b3d ad3e 4d34 a53d e61b f43e
00000010: 07cb 193e 2c71 b13e e616 f13e e19e db3d
00000020: 9476 91bd adb3 423e 4a72 573e 00e3 b03d
00000030: 9ff9 7b3e 6fdc a43e c095 953e 56b1 2a3f
00000040: 9784 ef3e 59a2 b43e 2ef7 8e3e 6520 51bd

sequential/net/while/gru_cell/strided_slice_5 f4 [20]
0.3351844 -0.2859666 0.44447857 0.18794186 -0.39464083 -0.15997644 0.33162877 0.49600196
0.15119803 0.3663557 -0.22815916 0.28439984 0.30730602 0.257718 -0.109677255 -0.3643238
0.3437188 0.5603611 -0.36208594 -0.13056828
00000000: 4a9d ab3e 376a 92be b292 e33e d573 403e
00000010: 5d0e cabe ddd0 23be 3fcb a93e f8f3 fd3e
00000020: a8d3 1a3e f992 bb3e 8ea2 69be db9c 913e
00000030: 3757 9d3e 9df3 833e 789e e0bd a688 babe
00000040: e9fb af3e d373 0f3f 5463 b9be b1b3 05be

sequential/net/while/gru_cell/MatMul_3 f4 [20, 20]
-0.2945767 0.1474357 0.130977 0.13363239 0.10233134 -0.2528669 0.008507925 0.015919207
-0.101213865 -0.026080338 -0.26818267 0.06384074 -0.16847669 0.017353859 -0.05781297 -0.075
0.06950474 -0.23464839 -0.065824606 0.32842356 -0.11155928 -0.112866856 -0.085137755 0.112026945
-0.3170663 0.11309067 0.047058083 0.19057386 0.033517 0.07100675 -0.027531648 -0.33858663
0.0448794 -0.31149286 0.06965732 0.043273974 0.061946522 0.12291167 0.10774397 0.038615365
0.1233311 -0.16690478 0.28311208 -0.2597768 0.20799515 0.27245623 -0.033535447 0.2067508
-0.04204834 -0.14564937 -0.12487421 0.250615 0.15274814 0.06286579 0.056055464 -0.20413527
-0.104136884 -0.055504818 0.22124158 -0.21932875 -0.23504439 -0.12085708 0.21987182 0.1992404
-0.34839296 -0.08166065 -0.04579708 -0.010312364 0.3823674 -0.03831175 0.078587055 0.34271044
0.12155236 0.110047445 -0.084950745 -0.16531567 0.04467191 0.07907486 0.038783427 0.17428574
-0.13623416 -0.027851894 -0.24614628 0.027904123 0.14318846 0.094111405 -0.16914679 -0.012779875
-0.023001198 -0.06583288 -0.11770857 -0.15335265 -0.19516419 -0.1133277 -0.13618544 -0.12117169
-0.224413 -0.24447241 -0.013520291 0.07625694 -0.059635475 0.049457338 0.41737783 0.05681516
-0.20282175 0.070846684 0.14860336 0.011530256 0.015702263 0.10744061 -0.14767496 -0.25039926
-0.041242015 -0.077375375 0.069994405 0.009165104 0.031043079 -0.11483614 -0.27068347 -0.1516804
0.08781684 0.11908269 0.13277556 -0.009233569 0.05803493 0.07349189 0.061904777 0.17174537
-0.051722288 0.020201229 -0.07641696 -0.013643446 0.082790665 0.18069126 -0.25478432 -0.051648125
0.04362208 0.07971112 -0.072825566 0.031401448 -0.09118914 -0.14196646 0.04647967 0.04857185
0.06830611 -0.11098758 -0.050736852 -0.072454795 0.19392028 0.0809952 0.026457414 0.082075775
-0.06249281 -0.056039494 0.14357191 0.10503194 -0.097091 -0.07414825 -0.023947837 -0.09717073
-0.08130372 0.36262336 0.12544236 -0.1575811 -0.062386204 -0.16105148 -0.04675001 0.22591272
-0.09281797 0.16040464 0.20815964 -0.14875205 -0.030085526 -0.43025997 -0.09621474 -0.2298974
-0.15788168 0.14204516 0.04494539 -0.119988985 -0.03870824 0.023236841 -0.23889391 -0.0041097403
0.062406775 -0.12262015 -0.08045197 0.013703043 0.18785587 -0.16249081 0.04979686 -0.11710276
-0.12637205 0.006100876 -0.13670734 0.18502787 -0.14453523 -0.20131974 0.027202768 0.3545243
0.075814985 0.10501337 0.087831266 -0.48163992 0.24291104 0.13518243 0.14844915 -0.14314295
-0.031124063 -0.042902246 0.14720961 -0.20831934 0.07285121 -0.16623002 -0.14536834 0.2149135
-0.059710484 0.21992248 0.07590627 0.20554602 0.23771113 -0.05688086 0.2324161 -0.14470524
-0.120288365 -0.08513738 0.23072295 -0.12523836 -0.013502755 0.08630171 -0.034441855 -0.019872747
-0.119335175 0.028588513 -0.0040169903 0.01924803 0.14088945 -0.037734102 0.04514334 0.0574257
-0.017965542 -0.37050906 0.29586288 0.008746608 0.064805724 -0.15453799 0.35870054 0.31402498
0.38766614 0.36170077 -0.18007064 0.030339286 0.42267182 -0.011597262 -0.1597726 0.037166487
00000000: c2d2 96be 62f9 163e d61e 063e eed6 083e
00000010: 1893 d13d c577 81be d364 0b3c ff68 823c
00000020: 3749 cfbd 6fa6 d5bc 3d4f 89be efbe 823d
00000030: 2785 2cbe ae29 8e3c 4bcd 6cbd 9a99 99bd
00000040: 8058 8e3d ab47 70be 0dcf 86bd 2227 a83e
00000050: 3179 e4bd bd26 e7bd b45c aebd 626e e53d
00000060: 8456 a2be 159c e73d fabf 403d cb25 433e
00000070: 1f49 093d fd6b 913d 0d8a e1bc 3a5b adbe
00000080: 76d3 373d fe7b 9fbe 7fa8 8e3d 0d40 313d
00000090: a3bb 7d3d 1db9 fb3d dfa8 dc3d 252b 1e3d
000000a0: 0495 fc3d 16e9 2abe 11f4 903e 7701 85be
000000b0: aefc 543e 627f 8b3e 775c 09bd 7bb6 533e
000000c0: e13a 2cbd 1c25 15be 0dbe ffbd 9c50 803e
000000d0: 026a 1c3e c8bf 803d 6a9a 653d d608 51be
000000e0: b845 d5bd 0559 63bd 278d 623e b797 60be
000000f0: 7aaf 70be eb83 f7bd 1426 613e ad05 4c3e
00000100: 9060 b2be b33d a7bd b895 3bbd 31f5 28bc
00000110: a9c5 c33e c8ec 1cbd 40f2 a03d be77 af3e
00000120: 72f0 f83d 8e60 e13d a8fa adbd 8348 29be
00000130: e5f9 363d 00f2 a13d 5fdb 1e3d f677 323e
00000140: f880 0bbe a829 e4bc c50d 7cbe 3097 e43c
00000150: ff9f 123e 7bbd c03d d134 2dbe ae62 51bc
00000160: 026d bcbc 64d3 86bd 3111 f1bd 7a08 1dbe
00000170: 1fd9 47be 5a18 e8bd 3274 0bbe dd28 f8bd
00000180: 85cc 65be fa56 7abe 3684 5dbc 992c 9c3d
00000190: 5444 74bd c793 4a3d 8cb2 d53e 03b7 683d
000001a0: 81b0 4fbe 1118 913d 7b2b 183e 66e9 3c3c
000001b0: 08a2 803c d309 dc3d 1b38 17be 5534 80be
000001c0: 63ed 28bd fb76 9ebd 3a59 8f3d 3b29 163c
000001d0: 0e4e fe3c 362f ebbd 0697 8abe 1b52 1bbe
000001e0: 51d9 b33d a0e1 f33d 51f6 073e 6548 17bc
000001f0: 09b6 6d3d eb82 963d dd8f 7d3d 05de 2f3e
00000200: c0da 53bd 0c7d a53c 7f80 9cbd c388 5fbc
00000210: 278e a93d 2107 393e 1773 82be fc8c 53bd
00000220: 11ad 323d 953f a33d 9225 95bd ce9e 003d
00000230: 5fc1 babd a85f 11be 7761 3e3d 47f3 463d
00000240: 13e4 8b3d 754d e3bd 72d1 4fbd 2e63 94bd
00000250: 0a93 463e d0e0 a53d 38bd d83c 5817 a83d
00000260: 76f8 7fbd ab89 65bd 8404 133e fc1a d73d
00000270: a5d7 c6bd 0adb 97bd 412e c4bc 7301 c7bd
00000280: 9182 a6bd c5a9 b93e f673 003e f15c 21be
00000290: ad88 7fbd aeea 24be f07c 3fbd aa55 673e
000002a0: 5917 bebd 1d41 243e cd27 553e 7552 18be
000002b0: ec75 f6bc 094b dcbe 3c0c c5bd 396a 6bbe
000002c0: bcab 21be 4974 113e a818 383d c9bc f5bd
000002d0: 888c 1ebd 305b be3c 9ba0 74be 00ab 86bb
000002e0: 3f9e 7f3d 4620 fbbd 01c4 a4bd ba82 603c
000002f0: 4a5d 403e fe63 26be cbf7 4b3d 92d3 efbd
00000300: ad67 01be dbe9 c73b 02fd 0bbe f277 3d3e
00000310: 0b01 14be c326 4ebe 57d8 de3c 3684 b53e
00000320: e344 9b3d 4011 d73d e1e0 b33d 8299 f6be
00000330: acbd 783e 436d 0a3e 0e03 183e 1194 12be
00000340: e4f7 febc 44ba 2fbd 1ebe 163e aa51 55be
00000350: 0433 953d 3438 2abe 70db 14be 4912 5c3e
00000360: fb92 74bd 5c33 613e bf74 9b3d a87a 523e
00000370: 8c6a 733e e8fb 68bd 7cfe 6d3e 9c2d 14be
00000380: bf59 f6bd 825c aebd a342 6c3e 7c3e 00be
00000390: a93a 5dbc f3be b03d e712 0dbd 2ccc a2bc
000003a0: 0066 f4bd 7532 ea3c f5a0 83bb 0bae 9d3c
000003b0: 5345 103e 138f 1abd 39e8 383d 3637 6b3d
000003c0: 792c 93bc 5db3 bdbe 577b 973e ef4d 0f3c
000003d0: ddb8 843d 353f 1ebe 99a7 b73e e2c7 a03e
000003e0: 2d7c c63e d830 b93e 7064 38be 188a f83c
000003f0: 7168 d83e 7102 3ebc 6e9b 23be e33b 183d

sequential/net/while/gru_cell/MatMul_4 f4 [20, 20]
0.2920895 -0.0013716243 0.42586166 0.33686844 -0.16355419 -0.1660622 0.17053667 -0.01674027
0.04980255 0.15008096 -0.17020676 0.58628607 -0.06748579 0.19881165 -0.35079455 -0.17765681
-0.087558016 0.20526557 -0.40107137 0.14392413 0.1636151 -0.47296685 0.27722353 0.5629599
-0.22540249 -0.26814842 0.090810485 0.18784612 0.021776576 -0.15615244 -0.12499201 0.10075525
0.21323195 0.26136348 -0.010085623 -0.26135126 0.32334283 0.094786085 -0.34157342 -0.18854819
0.23562485 -0.081528865 0.044981036 -0.20052296 0.02326452 -0.20189026 -0.13799861 0.04716081
0.18250754 0.07338443 0.19957358 0.15352115 -0.32067713 0.06044224 0.15459953 0.08902316
0.08555996 -0.03612594 0.0701717 -0.19403537 0.13826883 -0.20849839 -0.0032930616 0.53856605
-0.16437568 -0.24114098 0.34578207 0.32934028 0.42529005 0.12131455 -0.22640389 0.2794209
0.06819367 0.20443515 -0.40928772 -0.25361 0.45434806 0.35250708 -0.49612975 -0.09844404
0.020054128 -0.27566078 0.39806378 0.20625125 -0.03727094 -0.036889058 -0.12546682 0.2824404
0.14250383 0.117047355 -0.393155 -0.017168783 -0.17908207 0.17985275 -0.3011069 -0.09931663
0.17858425 0.16731246 -0.4459475 0.06699563 -0.026958082 -0.48618734 0.19916609 0.50122994
-0.21809793 -0.47886536 0.10511696 0.10256107 0.06210389 0.3539868 -0.17997977 0.111387685
0.17558594 0.20366368 -0.50805974 -0.15715693 0.4867592 0.103609666 -0.5568481 -0.089896105
0.015488143 -0.2107606 0.34886584 0.12410169 -0.40466908 -0.41040957 0.7585806 0.3513348
0.19310834 0.2685073 -0.18756278 0.10888219 0.4557336 0.07766857 -0.37093627 -0.5887654
0.53136444 0.15003833 -0.14298156 -0.23715058 0.3146888 0.307205 0.007291435 0.25789008
-0.098983526 -0.23652028 -0.106919535 0.063514315 0.26873627 0.07148893 -0.09531764 0.11000171
0.10401575 -0.05002465 -0.047328677 0.11248183 -0.3664216 0.03893111 0.0013634816 -0.083384134
-0.25179344 0.24056084 -0.10130731 -0.2259283 0.058037054 0.025280925 -0.048913874 -0.05182262
-0.5673904 -0.09058906 0.1003456 0.34242728 0.33695808 -0.020206928 0.33470303 0.1914365
-0.005539157 -0.28715575 -0.2095719 -0.13204716 -0.012640041 0.11398973 0.005417236 0.060369596
-0.07966957 -0.012436765 0.19938448 0.12672482 -0.19102012 0.20845297 0.08885367 0.06963092
0.05517687 -0.22811809 -0.16131373 -0.03304994 -0.0048957607 -0.086835854 0.31523678 -0.18097787
0.08710249 -0.18066266 0.27738047 0.28528073 -0.04363024 -0.22190878 0.18232961 -0.15363039
0.061194614 0.0154124275 -0.21306838 0.044025563 -0.08108828 -0.3429182 0.26767594 -0.05075984
0.13314544 0.0772715 -0.2793096 0.018815462 0.13999337 -0.23911455 0.1421245 0.15899862
-0.23761567 0.17407888 0.02343706 -0.18474083 -0.080547005 0.15163156 -0.11369879 0.31469104
-0.04783268 -0.0145740295 0.03678483 0.029845664 -0.007629117 -0.14510627 -0.059162118 -0.0693432
0.02794077 -0.12525862 -0.084666125 0.07582186 -0.21204041 0.17827407 0.10419588 0.1140029
0.10829889 0.19720152 -0.02554233 0.2946182 -0.01130441 0.0381783 0.04955326 -0.01617903
00000000: c18c 953e 13c8 b3ba 8a0a da3e 057a ac3e
00000010: c07a 27be 360c 2abe 2aa1 2e3e e422 89bc
00000020: c2fd 4b3d d3ae 193e ae4a 2ebe d816 163f
00000030: fd35 8abd 4895 4b3e 589b b3be abeb 35be
00000040: 9e51 b3bd 2331 523e 3a59 cdbe d960 133e
00000050: b78a 273e b628 f2be 3ef0 8d3e 241e 103f
00000060: e9cf 66be c04a 89be d9fa b93d bc5a 403e
00000070: ca64 b23c 6de6 1fbe d0fb ffbd c558 ce3d
00000080: 7a59 5a3e 6fd1 853e 2b3e 25bc d5cf 85be
00000090: 318d a53e 351f c23d b6e2 aebe c712 41be
000000a0: a447 713e 9bf8 a6bd 093e 383d e455 4dbe
000000b0: 3c95 be3c 52bc 4ebe 824f 0dbe b22b 413d
000000c0: 42e3 3a3e 934a 963d 045d 4c3e a634 1d3e
000000d0: cb2f a4be 4892 773d 574f 1e3e c651 b63d
000000e0: 0f3a af3d cbf8 13bd 2eb6 8f3d 35b1 46be
000000f0: 5896 0d3e 9a80 55be 68d0 57bb 77df 093f
00000100: 1952 28be a9ed 76be 590a b13e 4a9f a83e
00000110: 9ebf d93e c373 f83d 6cd6 67be 4210 8f3e
00000120: 1fa9 8b3d 7357 513e 298e d1be 2bd9 81be
00000130: 4fa0 e83e cf7b b43e b804 febe 079d c9bd
00000140: 8e48 a43c 6923 8dbe 04cf cb3e 8733 533e
00000150: 6aa9 18bd fb18 17bd 607a 00be 079c 903e
00000160: 86ec 113e 86b6 ef3d 9d4b c9be 8ca5 8cbc
00000170: 4a61 37be 522b 383e af2a 9abe 8466 cbbd
00000180: cade 363e f553 2b3e 3b53 e4be 0135 893d
00000190: 32d7 dcbc 8ced f8be 32f2 4b3e 9b50 003f
000001a0: 1055 5fbe d72d f5be 9047 d73d 8a0b d23d
000001b0: a660 7e3d c23d b53e 9e4c 38be 3a1f e43d
000001c0: cdcc 333e 368d 503e 3410 02bf bfed 20be
000001d0: 8038 f93e 4e31 d43d 998d 0ebf 731b b8bd
000001e0: fbc1 7d3c a0d1 57be 8b9e b23e 0729 fe3d
000001f0: c930 cfbe 3421 d2be 5732 423f 28e2 b33e
00000200: 31be 453e ca79 893e 7510 40be a0fd de3d
00000210: ea55 e93e b310 9f3d 5ceb bdbe 54b9 16bf
00000220: 8007 083f a6a3 193e c269 12be 9ad7 72be
00000230: e41e a13e f949 9d3e fdec ee3b 2b0a 843e
00000240: e0b7 cabd 5f32 72be a1f8 dabd cb13 823d
00000250: cd97 893e ca68 923d e535 c3bd 9448 e13d
00000260: 3606 d53d a6e6 4cbd b7db 41bd e05c e63d
00000270: 9d9b bbbe 3a76 1f3d dab6 b23a 4dc5 aabd
00000280: 12eb 80be 9555 763e 357a cfbd c059 67be
00000290: 43b8 6d3d f119 cf3c ea59 48bd f543 54bd
000002a0: 7f40 11bf c286 b9bd fe81 cd3d a152 af3e
000002b0: c585 ac3e 0089 a5bc 325e ab3e ee07 443e
000002c0: d181 b5bb 1406 93be 049a 56be 5f37 07be
000002d0: 2d18 4fbc 7373 e93d 1283 b13b 1c46 773d
000002e0: cd29 a3bd 93c3 4bbc 722b 4c3e 27c4 013e
000002f0: c79a 43be b274 553e eaf8 b53d a89a 8e3d
00000300: 2401 623d ca97 69be 6d2f 25be 605f 07bd
00000310: 9e6c a0bb ffd6 b1bd b766 a13e 4352 39be
00000320: ca62 b23d a2ff 38be d004 8e3e 5110 923e
00000330: 9fb5 32bd 0e3c 63be 9db4 3a3e 4951 1dbe
00000340: 34a7 7a3d 6884 7c3c 992e 5abe 2654 343d
00000350: 9d11 a6bd f992 afbe d20c 893e 8de9 4fbd
00000360: 4757 083e 8540 9e3d ab01 8fbe e222 9a3c
00000370: 6c5a 0f3e 72da 74be 1689 113e 89d0 223e
00000380: 8651 73be bc41 323e 14ff bf3c b32c 3dbe
00000390: d4f5 a4bd 4e45 1b3e e9da e8bd 2f1f a13e
000003a0: 33ec 43bd e9c7 6ebc b1ab 163d e57e f43c
000003b0: acfd f9bb bd96 14be fa53 72bd cf03 8ebd
000003c0: 0be4 e43c cc43 00be 6f65 adbd 7e48 9b3d
000003d0: 1f21 59be 7a8d 363e a664 d53d 5a7a e93d
000003e0: cfcb dd3d 32ef 493e 263e d1bc 32d8 963e
000003f0: 2236 39bc d960 1c3d 5cf8 4a3d e389 84bc

sequential/net/while/gru_cell/MatMul_5 f4 [20, 20]
0.1016416 -0.08106878 0.56796575 -0.17468233 -0.35204968 0.07817273 0.33824608 -0.034103967
-0.13665114 -0.31947175 -0.07062874 0.1841291 0.04302624 -0.041475825 -0.41050276 -0.019032301
0.090042345 0.38547406 -0.39712283 -0.000765847 -0.0528694 0.29710963 -0.002133336 -0.15345395
-0.14492254 0.06684219 -0.051491294 -0.107665166 0.28819337 0.084723815 0.22215138 -0.36691317
0.18148176 -0.43885696 0.020933924 0.30804035 -0.018328244 0.017841117 0.033269312 0.67912924
-0.14460723 0.25863916 0.21806097 0.06258378 -0.17365937 -0.21385407 0.1829251 -0.033336915
-0.14079174 0.35426673 0.15979546 0.18819347 -0.11050618 0.15539107 0.31331894 0.10132077
0.2646836 0.044469807 -0.06731556 -0.20238191 0.6334249 0.3490863 0.2526967 0.1373404
0.041144226 0.060476426 0.059264943 0.29147172 0.057715118 0.094925724 -0.23852654 -0.0966874
0.3529789 -0.013625018 -0.037978865 -0.18793328 -0.03367806 0.039011497 0.14525823 0.020909013
0.11226356 0.19059978 -0.0039392714 0.02918246 0.12445385 0.1529886 -0.19801892 -0.034660894
0.23374036 -0.10808182 0.60976094 -9.616103e-05 0.0952789 -0.031389147 0.023970367 -0.06264111
0.32881162 -0.12109358 -0.00014930344 -0.1678302 -0.033184085 0.20320907 0.063760646 -0.3167522
0.15719022 0.045861416 -0.22731356 -0.09318903 0.3368757 -0.18816598 0.10954442 0.07310269
-0.1451122 0.1337154 0.20576541 0.14301619 -0.0641664 -0.15993418 0.093974285 -0.38686845
0.051361546 -0.12326885 0.14499731 0.21940766 -0.42977113 -0.18625534 0.13568619 0.049919363
-0.30865827 0.17455122 -0.40058777 0.1906944 -0.0333808 0.13125047 -0.31706458 -0.23432425
0.30953956 -0.032332785 0.121518515 -0.2471302 0.3160391 -0.19498898 0.48758978 0.06774665
-0.37599537 -0.35710144 0.38489804 0.09639964 -0.09254204 0.20987326 0.045488957 0.2198918
0.23364748 -0.16907793 -0.00257017 0.036470834 0.38967353 0.38398278 -0.1194303 0.19297153
0.049048256 -0.07607039 0.08096123 0.17995596 -0.11320682 0.036299318 0.024291467 0.03540248
0.19268867 -0.033565626 -0.070476554 0.22010162 -0.44264463 -0.040705793 0.0002126236 -0.2872264
0.09761979 -0.12917273 -0.13987324 0.19403268 0.15067711 -0.0049597993 0.1342192 0.007530373
-0.10133385 -0.11406513 -0.1714024 0.2059777 -0.18245757 0.05349969 -0.0903522 0.22618373
-0.069874145 0.14459746 0.08064184 0.14035033 -0.043478046 0.10944264 -0.053384673 -0.012212735
0.027111707 0.18742912 -0.07542866 -0.15436377 0.0041378955 -0.12778032 -0.35487458 0.17564732
0.04006095 0.21430723 0.04022778 -0.4008029 0.30642885 0.014732433 0.032752547 -0.09062149
-0.21252498 -0.12847269 -0.012380492 0.28057593 0.29114652 -0.2511374 0.24754213 0.055737127
0.007276466 -0.153011 -0.005842656 -0.18751408 -0.18615623 0.12496094 -0.018643772 0.3877434
-0.24047717 0.28753227 -0.18086302 -0.12402034 -0.16175929 -0.14833233 -0.049473748 -0.27324954
-0.25483418 0.18622346 -0.074647516 0.02317737 0.07073304 -0.17615795 0.12654646 -0.28952885
0.19488499 0.8709196 0.32993063 -0.14033061 0.39375338 -0.26654258 0.024971047 -0.16133116
00000000: 7929 d03d 6307 a6bd 3466 113f eddf 32be
00000010: db3f b4be 0619 a03d 972e ad3e 9ab0 0bbd
00000020: 47ee 0bbe cd91 a3be cda5 90bd 578c 3c3e
00000030: 483c 303d 8ee2 29bd 6b2d d2be a1e9 9bbc
00000040: 1f68 b83d db5c c53e af53 cbbe 1fc3 48ba
00000050: 958d 58bd c11e 983e 70cf 0bbb 0823 1dbe
00000060: 9366 14be 8fe4 883d 89e8 52bd 8e7f dcbd
00000070: 158e 933e ae83 ad3d a77b 633e 0bdc bbbe
00000080: 5bd6 393e dcb1 e0be 9f7d ab3c 77b7 9d3e
00000090: 1d25 96bc 8927 923c 6745 083d 6adb 2d3f
000000a0: eb13 14be 5a6c 843e 604b 5f3e ed2b 803d
000000b0: c3d3 31be 90fc 5abe b850 3b3e 4a8c 08bd
000000c0: b62b 10be 7362 b53e 6ca1 233e cab5 403e
000000d0: 1051 e2bd d61e 1f3e 576b a03e 4481 cf3d
000000e0: 9c84 873e f925 363d bedc 89bd 343d 4fbe
000000f0: 2228 223f 71bb b23e 7661 813e f6a2 0c3e
00000100: d986 283d 21b6 773d ccbf 723d c83b 953e
00000110: b066 6c3d 6b68 c23d 4d40 74be 0b04 c6bd
00000120: a6b9 b43e 783b 5fbc ba8f 1bbd 9571 40be
00000130: 01f2 09bd 85ca 1f3d 93be 143e 6149 ab3c
00000140: 70ea e53d 972c 433e 0115 81bb 0e10 ef3c
00000150: a9e1 fe3d 0ba9 1c3e 79c5 4abe 95f8 0dbd
00000160: a259 6f3e 005a ddbd 4b19 1c3f 0faa c9b8
00000170: 9521 c33d e891 00bd 815d c43c fb49 80bd
00000180: ff59 a83e e9ff f7bd 568e 1cb9 aedb 2bbe
00000190: 09ec 07bd 0a16 503e f194 823d 582d a2be
000001a0: 79f6 203e 2ed9 3b3d e3c4 68be e4d9 bebd
000001b0: f97a ac3e 95ae 40be d358 e03d ddb6 953d
000001c0: 4b98 14be b1ec 083e 2bb4 523e d672 123e
000001d0: ac69 83bd c9c5 23be 9775 c03d 9f13 c6be
000001e0: 7c60 523d 6174 fcbd 2d7a 143e 67ac 603e
000001f0: f60a dcbe b8b9 3ebe 52f1 0a3e 3f78 4c3d
00000200: 7508 9ebe 8ebd 323e d719 cdbe 6545 433e
00000210: 4eba 08bd 8666 063e 4a56 a2be b2f2 6fbe
00000220: f87b 9e3e 626f 04bd b3de f83d b30f 7dbe
00000230: e0cf a13e 31ab 47be 5ea5 f93e c1be 8a3d
00000240: 7782 c0be 00d6 b6be 5b11 c53e 2d6d c53d
00000250: ae86 bdbd 04e9 563e a152 3a3d 512b 613e
00000260: 4941 6f3e c422 2dbe 4c70 28bb 7162 153d
00000270: 4a83 c73e 6499 c43e e097 f4bd 549a 453e
00000280: d3e6 483d cbca 9bbd 00cf a53d 6046 383e
00000290: fad8 e7bd 98ae 143d e6fe c63c 3102 113d
000002a0: 2e50 453e 1c7c 09bd 0356 90bd 5262 613e
000002b0: 51a2 e2be 1ebb 26bd b7f3 5e39 570f 93be
000002c0: e2ec c73d db45 04be ee3a 0fbe 81b0 463e
000002d0: 1a4b 1a3e d085 a2bb c270 093e 59c1 f63b
000002e0: 1f88 cfbd fb9a e9bd 1c84 2fbe d1eb 523e
000002f0: 28d6 3abe 7e22 5b3d 930a b9bd b59c 673e
00000300: 2d1a 8fbd 5b11 143e 8d27 a53d ffb7 0f3e
00000310: 0916 32bd 7623 e03d e3a9 5abd ec17 48bc
00000320: 5f19 de3c 6bed 3f3e 577a 9abd 8911 1ebe
00000330: 2f97 873b d8d8 02be 1fb2 b5be e4dc 333e
00000340: f316 243d 5b73 5b3e e2c5 243d 0a36 cdbe
00000350: 3ee4 9c3e 4d60 713c 8927 063d c297 b9bd
00000360: 26a0 59be 588e 03be 8cd7 4abc a6a7 8f3e
00000370: 2811 953e 1595 80be af7b 7d3e 9d4c 643d
00000380: 6c6f ee3b eaae 1cbe c073 bfbb b103 40be
00000390: bd9f 3ebe 85eb ff3d d3ba 98bc 4e86 c63e
000003a0: a63f 76be 6e37 933e 2834 39be 60fe fdbd
000003b0: 3aa4 25be 6ee4 17be fca4 4abd 5de7 8bbe
000003c0: a079 82be 5db1 3e3e cce0 98bd 78de bd3c
000003d0: 7cdc 903d c062 34be 6595 013e 203d 94be
000003e0: ee8f 473e 96f4 5e3f abec a83e d4b2 0fbe
000003f0: 0b9a c93e 4578 88be 1590 cc3c ff33 25be

sequential/net/while/gru_cell/MatMul f4 [20, 13]
-0.10947105 -0.2249046 0.28823695 0.018837877 0.24624307 0.031084385 0.44763693 0.24403247
-0.22797288 0.19897209 0.14466932 -0.16272911 -0.35830978 0.05090956 -0.03086319 -0.06623649
0.32391527 0.268913 -0.15007648 0.15239051 0.49009392 0.0043702372 -0.33345684 -0.028057847
-0.09373586 -0.07023045 0.1070198 -0.058741435 -0.087419696 -0.01602822 0.0010322806 -0.07790789
-0.073053345 -0.11077912 0.22794332 0.39699107 0.09506192 0.070429586 0.1805853 -0.37972006
-0.12617779 0.124784194 0.07533213 0.11338146 0.2576388 0.02374651 -0.41183335 -0.19310568
-0.025502024 -0.04977732 0.073248416 0.0022384753 0.025166957 -0.20789325 -0.07894491 -0.0312324
-0.06113202 -0.1486225 -0.06894041 0.090890355 -0.42466745 -0.03961537 0.122658476 0.3068852
0.32548526 -0.26190704 -0.07953927 0.016623471 -0.08640572 0.1806909 -0.012565565 0.0234912
-0.09611339 0.15860324 -0.24047117 0.12313799 -0.06659205 -0.12596394 0.21449484 -0.061098017
0.0720013 -0.26903316 -0.09350758 -0.31739637 -0.30153137 -0.23952581 -0.18722089 -0.0056594536
-0.08360435 0.17542377 -0.31470656 0.12022305 0.27439433 0.5592182 -0.090381265 0.35121164
0.10825316 0.43165606 0.07337194 -0.053247284 -0.15875633 0.012114956 -0.28961664 0.29947433
0.27841443 -0.023509588 -0.09104074 0.16577055 -0.46781975 -0.16311944 -0.08375443 -0.40717703
-0.14559327 0.07958654 0.1647679 0.26525453 -0.06591488 -0.30995342 -0.19433393 -0.09570939
-0.08019792 -0.043970488 0.24792258 0.29656756 0.16743311 -0.09530643 0.25745478 0.20672356
0.24009751 0.20700361 -0.015694095 0.0031642693 0.30514577 -0.06576824 0.029529037 -0.21854672
-0.320559 -0.05853741 -0.23902185 -0.3736749 -0.28288823 -0.11815814 0.012691699 0.07690377
0.22909872 -0.20055185 0.19514373 -0.25496957 -0.06146689 -0.013593315 -0.07366203 0.18076186
-0.20809221 -0.12987353 0.21239583 0.24501342 0.039151233 0.027761329 -0.18714535 -0.043207265
-0.12819117 -0.3379545 0.06450017 -0.2661531 0.2768986 0.016384846 0.2382615 0.12320916
-0.1302257 -0.21927491 0.13055237 0.177612 -0.02678233 0.031098222 0.062397737 0.16584726
-0.30210853 0.16723497 0.19106074 0.055371363 -0.21392757 0.22907639 0.2294793 0.09782824
-0.1361487 -0.012115179 0.14939448 -0.18447426 -0.11864598 -0.31216025 0.35629252 -0.24351977
-0.1601971 -0.14176829 -0.041840434 0.17207883 -0.09315423 0.28213257 0.30439937 0.14357862
0.15668128 0.098625556 0.40357044 -0.17020401 -0.5466033 -0.052044384 -0.41153377 -0.14179742
-0.057417106 -0.17180254 -0.22491275 0.08200078 -0.0011691656 0.0136299 -0.024147142 0.29311058
-0.197208 -0.052870963 -0.37981978 0.4803683 -0.052177195 -0.03508671 -0.009152386 -0.21613176
-0.07527951 0.022838471 -0.054777928 0.047523983 -0.12200266 0.22167023 -0.49037188 -0.16678017
0.30843598 -0.15799741 0.26331228 -0.20961465 0.08068877 -0.14951001 -0.01659296 0.08361958
-0.016447961 0.2698936 0.294717 0.08270302 0.12632121 0.21883176 -0.07276565 -0.07962485
-0.047980744 0.26983538 -0.041958045 -0.24543253 0.08924304 0.028837508 -0.13764615 0.14196917
00000000: 5c32 e0bd 644d 66be cb93 933e e451 9a3c
00000010: 2527 7c3e aea4 fe3c ab30 e53e a6e3 793e
00000020: b971 69be 57bf 4b3e 3224 143e 76a2 26be
00000030: 6174 b7be 8b86 503d cdd4 fcbc ffa6 87bd
00000040: 39d8 a53e f7ae 893e a6ad 19be 420c 1c3e
00000050: 97ed fa3e 3534 8f3b dbba aabe 92d9 e5bc
00000060: 96f8 bfbd fbd4 8fbd 322d db3d dc9a 70bd
00000070: 1909 b3bd 9d4d 83bc 974d 873a 2c8e 9fbd
00000080: fe9c 95bd 2ae0 e2bd f969 693e 6a42 cb3e
00000090: d3af c23d 633d 903d 5aeb 383e ab6a c2be
000000a0: c034 01be db8e ff3d bb47 9a3d 8a34 e83d
000000b0: 3ce9 833e 0a88 c23c d2db d2be 7fbd 45be
000000c0: 9fe9 d0bc 4ee3 4bbd 4403 963d 62b3 123b
000000d0: ef2a ce3c f8e1 54be dead a1bd 17db ffbc
000000e0: 9265 7abd 7f30 18be a130 8dbd b924 ba3d
000000f0: 036e d9be ba43 22bd 5e34 fb3d 0f20 9d3e
00000100: 01a6 a63e ae18 86be 7ce5 a2bd f22d 883c
00000110: 7bf5 b0bd 0907 393e cddf 4dbc 9e70 c03c
00000120: 19d7 c4bd e368 223e 133e 76be c52f fc3d
00000130: 6a61 88bd b1fc 00be 89a4 5b3e ea41 7abd
00000140: 6b75 933d b7be 89be e780 bfbd c781 a2be
00000150: 5262 9abe 4146 75be d5b6 3fbe f072 b9bb
00000160: c238 abbd 4aa2 333e 3821 a1be 8137 f63d
00000170: 6a7d 8c3e ed28 0f3f d019 b9bd 03d2 b33e
00000180: d5b3 dd3d 0602 dd3e 0744 963d d319 5abd
00000190: 0591 22be cf7d 463c a248 94be b354 993e
000001a0: 568c 8e3e 2e97 c0bc 9173 babd c1bf 293e
000001b0: 1286 efbe c808 27be 7187 abbd 8279 d0be
000001c0: 6716 15be 45fe a23d ebb8 283e 71cf 873e
000001d0: 61fe 86bd 37b2 9ebe 79ff 46be 4903 c4bd
000001e0: cf3e a4bd 661a 34bd 6bdf 7d3e b4d7 973e
000001f0: 9673 2b3e 0430 c3bd 1dd1 833e 57af 533e
00000200: 1fdc 753e c1f8 533e e790 80bc a15f 4f3b
00000210: 113c 9c3e 80b1 86bd e1e6 f13c b6ca 5fbe
00000220: 4f20 a4be ecc4 6fbd 25c2 74be 5152 bfbe
00000230: bad6 90be e5fc f1bd d8f0 4f3c b97f 9d3d
00000240: db98 6a3e 775d 4dbe c2d3 473e 5f8b 82be
00000250: b5c4 7bbd 7fb6 5ebc 1edc 96bd a319 393e
00000260: 2016 55be 91fd 04be 4b7e 593e cce4 7a3e
00000270: 0b5d 203d ba6b e33c 08a3 3fbe 1afa 30bd
00000280: 8c44 03be 5f08 adbe aa18 843d 3845 88be
00000290: a7c5 8d3e 8339 863c d3fa 733e 1655 fc3d
000002a0: e359 05be 9a89 60be 85af 053e ecdf 353e
000002b0: 9e66 dbbc b3c1 fe3c c594 7f3d ddd3 293e
000002c0: f8ad 9abe a53f 2b3e 6da5 433e 15cd 623d
000002d0: d40f 5bbe 0093 6a3e 9ffc 6a3e 2c5a c83d
000002e0: 916a 0bbe be7e 46bc defa 183e d2e6 3cbe
000002f0: aafc f2bd 78d3 9fbe f96b b63e 3f5d 79be
00000300: b50a 24be b52b 11be e060 2bbd 6f35 303e
00000310: a5c7 bebd ae73 903e 3cda 9b3e 4606 133e
00000320: 0f71 203e 32fc c93d c9a0 ce3e f649 2ebe
00000330: 32ee 0bbf 7e2c 55bd 8eb4 d2be 5833 11be
00000340: 332e 6bbd 01ed 2fbe 874f 66be 06f0 a73d
00000350: b03e 99ba f24f 5f3c 3ad0 c5bc 9712 963e
00000360: e5f0 49be 398f 58bd bd77 c2be d5f2 f53e
00000370: c1b7 55bd 15b7 0fbd e4f3 15bc a551 5dbe
00000380: 252c 9abd bf17 bb3c d25e 60bd 82a8 423d
00000390: 88dc f9bd 85fd 623e 0612 fbbe 6cc8 2abe
000003a0: 52eb 9d3e 13ca 21be ded0 863e 39a5 56be
000003b0: 2740 a53d 2719 19be f6ed 87bc be40 ab3d
000003c0: e0bd 86bc 7e2f 8a3e 26e5 963e 3360 a93d
000003d0: 595a 013e 6f15 603e 2806 95bd 5a12 a3bd
000003e0: 7587 44bd dd27 8a3e 33dc 2bbd aa52 7bbe
000003f0: 0ec5 b63d a33c ec3c 1df3 0cbe 5e60 113e

sequential/net/while/gru_cell/MatMul_1 f4 [20, 13]
-0.2800257 0.018901788 0.08883536 -0.07577025 0.035185453 0.15002559 -0.06599402 0.019876081
-0.0946241 0.20302159 0.028199956 -0.21181187 -0.40402806 0.027481154 -0.06520561 -0.40074408
-0.010423156 0.17860752 0.038581565 0.13020486 0.35978925 0.034766972 0.33317795 -0.012174404
-0.19906436 0.17483346 0.08838917 -0.12570757 0.22568634 0.23668367 -0.44369593 -0.4399785
-0.04134273 -0.11760663 0.28504407 0.40787244 0.1652686 0.035072505 0.23433028 -0.2093908
0.10327038 -0.13620286 0.034643155 0.22368307 -0.08201243 0.08490434 -0.16605255 -0.09241059
0.033341672 0.005224589 0.1126159 -0.19286586 -0.050248325 -0.19288446 0.3095041 0.11723651
0.17150098 0.12942477 -0.018613815 -0.3906453 0.037443303 0.03061196 0.060758147 0.46469253
0.15633577 -0.2919692 0.037343998 -0.012661495 -0.2177497 0.1732701 -0.020521922 -0.08365695
-0.13540776 -0.14659593 0.014235423 0.11233776 0.030033767 -0.13935143 -0.21596242 0.13256353
-0.0229048 0.12788661 0.07897089 0.0014684469 -0.031164853 -0.014765833 0.09019815 0.08256721
-0.25449306 -0.109980755 0.08534578 0.019053295 -0.042400174 -0.1687368 0.48567122 0.04093027
-0.14503565 0.15566713 0.2755788 0.15085547 0.04261627 -0.071675345 0.26823536 -0.14585425
-0.0036808182 -0.15594131 -0.12548634 -0.26217946 -0.22504584 -0.0016730817 -0.064608514 0.20733622
0.074420854 0.14850216 -0.039245065 -0.090137035 -0.07381098 -0.24254486 -0.013844067 0.19797404
-0.32027158 -0.043664586 0.060951874 -0.33213347 -0.16944721 -0.26519373 -0.33183238 0.072163954
0.014594573 0.16101238 0.12070263 0.13278504 0.12701431 -0.16902418 0.33831862 0.21839423
-0.16337632 0.042832445 0.056246355 -0.060720507 -0.010557815 -0.1543844 0.04247411 -0.14597702
-0.39324713 0.15096992 -0.10542612 -0.2714906 -0.22507691 -0.21705289 -0.44297126 -0.84703565
-0.09002577 0.15667588 -0.14905281 0.1717169 0.1902759 -0.23155938 -0.16796456 0.21966226
-0.11179242 0.010955461 0.25690433 0.70704585 -0.14188495 0.12887537 -0.5316488 -0.2646632
-0.21539927 0.088689096 0.002909762 -0.029778916 0.15893632 -0.15160787 0.12628421 -0.3008994
0.05436482 0.018577212 0.050629314 0.064214274 0.12235926 0.068816565 -0.123110816 -0.10435474
-0.06610942 0.06954917 -0.36098185 -0.35065085 -0.16689073 0.011652473 -0.33042002 0.012925994
-0.1586805 -0.06260399 -0.11990839 -0.03790832 0.1414807 -0.0069681215 0.28979525 -0.3940083
0.08438757 -0.26070568 0.10345264 0.041623577 -0.10577602 -0.06208372 0.039448466 0.16020076
-0.33068356 0.24191512 0.009752715 -0.07376089 0.11038416 -0.05365648 -0.18907873 0.06302184
0.11684414 -0.20337391 -0.028710933 0.07813877 -0.19080597 0.09210485 -0.124136865 -0.00861427
0.23491326 -0.123577654 -0.035815842 0.39260206 -0.0038426556 0.080949835 0.022348488 0.16435096
-0.2671987 -0.22667989 0.17423716 0.18092053 0.10892372 0.10105374 0.19171464 0.1544811
0.16658743 0.09042317 -0.15831104 0.045377057 0.16040441 -0.13874742 -0.029883377 0.052681748
-0.057391755 -0.4805404 -0.24712025 0.04955486 0.06567782 -0.01812429 -0.2626584 0.044098355
00000000: 875f 8fbe ecd7 9a3c 50ef b53d 6f2d 9bbd
00000010: 9f1e 103d 4fa0 193e df27 87bd 2ad3 a23c
00000020: 48ca c1bd e4e4 4f3e 9803 e73c 36e5 58be
00000030: c4dc cebe 2820 e13c 858a 85bd 542e cdbe
00000040: e3c5 2abc e4e4 363e b407 1e3d 6c54 053e
00000050: 4c36 b83e d067 0e3d 4d96 aa3e 2777 47bc
00000060: 87d7 4bbe 8b07 333e 6205 b53d 7cb9 00be
00000070: 521a 673e 345d 723e 1d2c e3be dd44 e1be
00000080: ff56 29bd bfdb f0bd 4cf1 913e a8d4 d03e
00000090: 2c3c 293e 30a8 0f3d 47f4 6f3e 8b6a 56be
000000a0: 6c7f d33d c378 0bbe fbe5 0d3d 2d0d 653e
000000b0: 22f6 a7bd 54e2 ad3d ae09 2abe c341 bdbd
000000c0: 4791 083d 0733 ab3b 2aa3 e63d a17e 45be
000000d0: 30d1 4dbd 8183 45be 5277 9e3e b219 f03d
000000e0: f49d 2f3e ed87 043e 007c 98bc a902 c8be
000000f0: 265e 193d efc5 fa3c 89dd 783d 2eec ed3e
00000100: 7c16 203e fd7c 95be 05f6 183d 2972 4fbc
00000110: c7f9 5ebe b86d 313e 971d a8bc 5654 abbd
00000120: 55a8 0abe 3e1d 16be b13b 693c 5711 e63d
00000130: 6009 f63c 24b2 0ebe 4125 5dbe bcbe 073e
00000140: d9a2 bbbc b5f4 023e 7dbb a13d e778 c03a
00000150: 6f4d ffbc 64ec 71bc cfb9 b83d ff18 a93d
00000160: ea4c 82be 973d e1bd c5c9 ae3d a815 9c3c
00000170: ceab 2dbd 57c9 2cbe e6a9 f83e 80a6 273d
00000180: 3a84 14be 3467 1f3e aa18 8d3e db79 1a3e
00000190: 668e 2e3d 86ca 92bd 2556 893e d15a 15be
000001a0: e239 71bb 14af 1fbe 7e7f 00be 633c 86be
000001b0: 6b72 66be 4e4b dbba 7851 84bd f24f 543e
000001c0: f669 983d f310 183e 6fbf 20bd c499 b8bd
000001d0: 362a 97bd ae5d 78be 3ad2 62bc b5b9 4a3e
000001e0: a3fa a3be a3d9 32bd aca8 793d 660d aabe
000001f0: 9283 2dbe 79c7 87be efe5 a9be b2ca 933d
00000200: 131e 6f3c 6ee0 243e f132 f73d cdf8 073e
00000210: 0a10 023e ad14 2dbe 1938 ad3e bda2 5f3e
00000220: 1f4c 27be 1371 2f3d 9462 663d 11b6 78bd
00000230: b0fa 2cbc f216 1ebe 55f9 2d3d 007b 15be
00000240: b057 c9be dc97 1a3e a6e9 d7bd d100 8bbe
00000250: 907a 66be 1d43 5ebe 21cd e2be 54d7 58bf
00000260: 6e5f b8bd a46f 203e 4da1 18be 8ed6 2f3e
00000270: afd7 423e e71d 6dbe e7fe 2bbe 25ef 603e
00000280: 6df3 e4bd 897e 333c f788 833e f500 353f
00000290: 4a4a 11be e8f7 033e 231a 08bf ef81 87be
000002a0: a091 5cbe a1a2 b53d b5b1 3e3b eaf2 f3bc
000002b0: 34c0 223e 183f 1bbe a650 013e 7c0f 9abe
000002c0: a5ad 5e3d 3d2f 983c af60 4f3d c682 833d
000002d0: 7e97 fa3d b3ef 8c3d 8621 fcbd f0b7 d5bd
000002e0: 6064 87bd cc6f 8e3d 9dd2 b8be 8288 b3be
000002f0: 67e5 2abe 04ea 3e3c d02c a9be 8cc7 533c
00000300: 247d 22be 8536 80bd 8892 f5bd c145 1bbd
00000310: 51e0 103e d754 e4bb 0b60 943e 75bb c9be
00000320: 64d3 ac3d 377b 85be fade d33d 7c7d 2a3d
00000330: 19a1 d8bd 804b 7ebd b794 213d ab0b 243e
00000340: 5b4f a9be 99b8 773e dac9 1f3c f30f 97bd
00000350: 1711 e23d e6c6 5bbd db9d 41be 9811 813d
00000360: fb4b ef3d 4041 50be 3133 ebbc 3807 a03d
00000370: a462 43be 78a1 bc3d 783b febd de22 0dbc
00000380: 1a8d 703e 4816 fdbd a2b3 12bd 2303 c93e
00000390: 10d5 7bbb 07c9 a53d 2d14 b73c 9e4b 283e
000003a0: 45ce 88be c61e 68be 3a6b 323e 3b43 393e
000003b0: 6613 df3d 43f5 ce3d d850 443e 4b30 1e3e
000003c0: e595 2a3e c82f b93d 4a1c 22be 4bdd 393d
000003d0: 0e41 243e ce13 0ebe fccd f4bc d1c8 573d
000003e0: 9e13 6bbd 6409 f6be 170d 7dbe 09fa 4a3d
000003f0: 1882 863d 6479 94bc 297b 86be 7aa0 343d

sequential/net/while/gru_cell/MatMul_2 f4 [20, 13]
0.25566846 -0.1960213 0.47416297 0.37039942 -0.32734096 -0.28229848 -0.24555579 -0.13547856
0.25629553 0.33670968 0.3121669 -0.08647772 0.044448458 -0.24977869 -0.0122183785 0.11619743
0.21358205 0.075041965 -0.14370728 -0.34198672 0.08134053 -0.14864108 -0.13689157 0.052801054
-0.19450712 -0.20186912 0.022696162 0.03155232 0.08011266 -0.01265594 -0.32093802 -0.2745149
-0.18561842 -0.45155102 0.21647964 -0.549526 -0.22884636 -0.034404583 0.14551397 0.13965309
-0.100944504 -0.06608248 -0.17147091 0.17968567 0.074568845 0.16449526 0.13282841 0.26918018
-0.05281411 0.077118814 -0.011786657 -0.07466689 0.34376046 -0.008212467 -0.36476275 -0.3974582
-0.13604379 -0.4770247 -0.12583275 0.0925703 0.002272326 -0.21127439 0.21086879 0.02491884
0.09769443 0.1565027 0.063413136 -0.0663451 -0.03852728 -0.13749687 0.3604459 -0.17805703
-0.5552803 0.16864796 -0.2602071 0.06914018 0.116536185 0.56852174 -0.25425005 0.38228527
-0.20147865 -0.06969724 0.401707 0.03067772 -0.024513973 0.029019589 -0.016982323 -0.2342111
0.21171139 -0.085100785 0.03971751 0.13744637 0.19627671 -0.073450096 -0.029586902 -0.41265374
-0.094355024 0.024260193 -0.29480755 0.0719681 -0.31630987 0.09612958 0.10271539 0.29881293
-0.08393327 0.26149875 0.30549783 0.14038554 0.32358962 -0.027901998 0.65689933 0.06956744
0.082540415 -0.33080262 -0.12929763 -0.023425078 -0.029259074 -0.1569986 0.13957782 -0.108396895
0.08775465 0.027890254 -0.3030166 -0.34992993 -0.039494146 0.012449962 -0.44865292 -0.3157104
-0.015259025 -0.01419928 -0.21412407 0.27050135 -0.12545869 -0.15419804 0.083145164 -0.431862
-0.3453325 0.3502776 -0.028161831 -0.39941567 -0.5833666 -0.1573947 -0.45174527 -0.2121888
-0.48007393 0.32087195 -0.1728192 -0.023924774 -0.29669002 -0.053316467 0.026153632 -0.32426968
-0.10073334 -0.16742504 -0.2977326 0.15078446 -0.13189112 0.100212045 -0.22605158 -0.32865876
-0.19342571 0.11937256 -0.34953946 0.24549648 -0.5606388 0.113453574 0.22380252 -0.14281565
-0.44683418 0.25205675 0.00077555573 -0.107186645 0.17429186 -0.10198026 -0.08261276 -0.25743112
0.18240616 0.0777712 -0.28571993 0.05655818 0.38291997 -0.17603599 -0.15245625 0.2724447
-0.10611642 0.12648804 0.09025016 0.18823753 0.22107765 0.2022291 0.31796274 -0.0367142
0.01321763 -0.11451427 -0.033179108 -0.21064474 0.03536018 0.08853057 -0.16270934 0.15966876
0.23057368 0.07622398 -0.32586637 0.32218623 -0.018693013 0.3245763 -0.34501186 0.17402527
-0.10688389 0.13765286 0.19592726 -0.19196485 0.23905554 0.44558215 0.13232629 -0.20939186
0.16906755 -0.33024246 -0.008886413 -0.15995677 -0.19196658 0.09827816 0.21297696 0.37371376
0.16035083 -0.12926386 0.13998166 -0.12929076 -0.24564771 0.009065433 0.26521364 -0.29686922
-0.23360272 0.14352947 0.032837536 0.14977293 -0.20353337 0.06242955 -0.12911052 -0.4145925
-0.35279635 0.20511921 0.06708545 0.11967402 0.21402119 0.27384636 0.15502235 0.30882922
-0.070656024 0.34540272 0.18563427 0.1838753 0.25335163 0.28053072 -0.07017041 -0.08833321
00000000: fae6 823e cfb9 48be 7dc5 f23e fea4 bd3e
00000010: 3c99 a7be 6d89 90be fa72 7bbe e4ba 0abe
00000020: 2b39 833e 3665 ac3e 57d4 9f3e 3b1b b1bd
00000030: 960f 363d fcc5 7fbe 982f 48bc ebf8 ed3d
00000040: 41b5 5a3e 9aaf 993d 0028 13be e218 afbe
00000050: dd95 a63d 5e35 18be 4e2d 0cbe eb45 583d
00000060: e02c 47be c7b6 4ebe 4ded b93c 013d 013d
00000070: 1b12 a43d dc5a 4fbc fd51 a4be 388d 8cbe
00000080: c112 3ebe b231 e7be d7ac 5d3e bcad 0cbf
00000090: b356 6abe d2eb 0cbd 9d01 153e 3801 0f3e
000000a0: febb cebd 4056 87bd 1296 2fbe 85ff 373e
000000b0: 8db7 983d 7271 283e 2c04 083e fcd1 893e
000000c0: 9c53 58bd 78f0 9d3d d31c 41bc f4ea 98bd
000000d0: 5f01 b03e 958d 06bc 2fc2 babe a47f cbbe
000000e0: 104f 0bbe 953c f4be 4dda 00be 7f95 bd3d
000000f0: 4eeb 143b 5058 58be fded 573e 9822 cc3c
00000100: 0414 c83d 3e42 203e bfde 813d f1df 87bd
00000110: c8ce 1dbd fbcb 0cbe 5d8c b83e 9554 36be
00000120: da26 0ebf 0db2 2c3e dd39 85be 5e99 8d3d
00000130: 86aa ee3d a48a 113f 102d 82be e5ba c33e
00000140: 6b50 4ebe 6dbd 8ebd 8aac cd3e d84f fb3c
00000150: 87d1 c8bc 7dba ed3c 831e 8bbc 09d5 6fbe
00000160: dfca 583e 5249 aebd d4ae 223d bebe 0c3e
00000170: c3fc 483e 016d 96bd 3b60 f2bc 5a47 d3be
00000180: 353d c1bd 50bd c63c 04f1 96be 0364 933d
00000190: 5ef3 a1be 96df c43d 725c d23d 02fe 983e
000001a0: 35e5 abbd 2ae3 853e 366a 9c3e 3ac1 0f3e
000001b0: 8aad a53e bb92 e4bc 8e2a 283f 6079 8e3d
000001c0: f30a a93d f65e a9be 9966 04be f3e5 bfbc
000001d0: bab0 efbc 3ec4 20be 7ded 0e3e 31ff ddbd
000001e0: b6b8 b33d 1a7a e43c fe24 9bbe 042a b3be
000001f0: 9dc4 21bd edfa 4b3c d6b5 e5be cba4 a1be
00000200: fd00 7abc 19a4 68bc 5743 5bbe 277f 8a3e
00000210: 3e78 00be 17e6 1dbe 0348 aa3d 041d ddbe
00000220: 6ccf b0be 9657 b33e a4b3 e6bc 3680 ccbe
00000230: 8357 15bf 142c 21be 284b e7be 0548 59be
00000240: 40cc f5be 5449 a43e 84f7 30be e3fd c3bc
00000250: c1e7 97be 5e62 5abd 2440 d63c ad06 a6be
00000260: 484d cebd 7871 2bbe 6870 98be 3e67 1a3e
00000270: 770e 07be f93b cd3d 117a 67be f645 a8be
00000280: 6411 46be 9a79 f43d d6f6 b2be 6e63 7b3e
00000290: 0686 0fbf 595a e83d 7d2c 653e 443e 12be
000002a0: 73c7 e4be 950d 813e aa4e 4b3a ac84 dbbd
000002b0: 9179 323e 07db d0bd e130 a9bd 03ce 83be
000002c0: aec8 3a3e 8246 9f3d e249 92be 8da9 673d
000002d0: 160e c43e c742 34be 7e1d 1cbe df7d 8b3e
000002e0: 9153 d9bd 1586 013e 13d5 b83d 57c1 403e
000002f0: 2e62 623e 2515 4f3e 03cc a23e a161 16bd
00000300: c28e 583c 7586 eabd d1e6 07bd 41b3 57be
00000310: d6d5 103d 844f b53d 479d 26be 3580 233e
00000320: 821b 6c3e 511b 9c3d f5d7 a6be 98f5 a43e
00000330: 1722 99bc dd2e a63e 65a5 b0be ae33 323e
00000340: f1e5 dabd dff4 0c3e 28a1 483e 6f92 44be
00000350: faca 743e 5823 e43e 8b80 073e d26a 56be
00000360: 0b20 2d3e 8a15 a9be 5198 11bc b5cb 23be
00000370: e392 44be 0f46 c93d a216 5a3e 6957 bf3e
00000380: 0233 243e bf5d 04be 5a57 0f3e cc64 04be
00000390: 138b 7bbe 2f87 143c 15ca 873e 3eff 97be
000003a0: 8d35 6fbe 64f9 123e a780 063d 135e 193e
000003b0: 0d6b 50be 21b6 7f3d 8c35 04be 7845 d4be
000003c0: b9a1 b4be c50a 523e 1964 893d a717 f53d
000003d0: 5f28 5b3e 9735 8c3e 2ebe 1e3e dd1e 9e3e
000003e0: 1bb4 90bd a0d8 b03e e916 3e3e cf49 3c3e
000003f0: 4eb7 813e b9a1 8f3e 81b5 8fbd 0be8 b4bd
