buildroot-external/rootfs-overlay/base/home/mycroft/.local/share/precise-lite/wakewords/en/sheila.tflite (tflite, 21888 bytes, 10 tensors)

sequential/dense_1/MatMul f4 [1, 20]
0.056231353 0.2951352 0.14391011 -0.5752886 -0.38061726 0.30145866 -0.109786555 -0.26639286
-0.13439155 0.43744707 0.3472065 0.31983483 0.5707266 -0.40852267 0.5995266 -0.12249695
0.09777079 0.33471107 0.47166505 0.48722836
00000000: d952 663d f61b 973e 2c5d 133e 1d46 13bf
00000010: 44e0 c2be ca58 9a3e c6d7 e0bd a564 88be
00000020: f09d 09be 10f9 df3e 0dc5 b13e 64c1 a33e
00000030: 231b 123f e229 d1be 937a 193f aedf fabd
00000040: 0d3c c83d 405f ab3e 157e f13e ff75 f93e

sequential/net/while/gru_cell/strided_slice_3 f4 [20]
-0.12788959 -0.11871293 -0.11600897 0.29694423 0.109329656 -0.029713202 0.029857708 0.22720705
-0.23626629 -0.018315345 -0.31735498 -0.13600798 -0.26489395 0.10130621 -0.044991422 0.18828817
-0.12513328 -0.15475142 -0.03893412 -0.106372975
00000000: 7df5 02be c41f f3bd 1c96 edbd 1309 983e
00000010: 3ae8 df3d 1a69 f3bc 2798 f43c f7a8 683e
00000020: caef 71be 100a 96bc 5a7c a2be ad45 0bbe
00000030: 2ea0 87be a179 cf3d ed48 38bd 9dce 403e
00000040: f022 00be 2877 1ebe 6279 1fbd 13da d9bd

sequential/net/while/gru_cell/strided_slice_4 f4 [20]
0.07485796 0.504602 0.39394984 -0.04794996 0.16255568 0.09330471 0.0511745 0.24890983
0.27577984 0.31204098 0.27463678 0.019301808 0.00037136834 0.22498898 0.09807668 0.14028183
0.055501495 0.4407962 0.435995 0.26785687
00000000: 214f 993d 992d 013f cbb3 c93e 2d67 44bd
00000010: ff74 263e 8a16 bf3d 5a9c 513d 38e2 7e3e
00000020: 0433 8d3e d6c3 9f3e 319d 8c3e d31e 9e3c
00000030: 37b4 c239 8363 663e 6ddc c83d 0aa6 0f3e
00000040: 8955 633d 0ab0 e13e bd3a df3e 8924 893e

sequential/net/while/gru_cell/strided_slice_5 f4 [20]
-0.043322973 -0.33034325 -0.029905103 0.6669054 0.3765112 -0.5100686 0.45312065 0.40906596
-0.21539152 -0.4267803 0.39033368 -0.17264974 -0.7082399 0.767791 -0.7922763 0.0031317347
-0.35388815 -0.27589542 -0.69078124 -0.6463848
00000000: 6e73 31bd c022 a9be 8cfb f4bc 50ba 2a3f
00000010: 13c6 c03e db93 02bf 6eff e73e 1871 d13e
00000020: 988f 5cbe f382 dabe d1d9 c73e 18cb 30be
00000030: 364f 35bf f38d 443f 9fd2 4abf ca3d 4d3b
00000040: d430 b5be 2a42 8dbe 0ad7 30bf 7979 25bf

sequential/net/while/gru_cell/MatMul_3 f4 [20, 20]
-0.33196145 -0.20862022 -0.2259677 0.019591449 0.011092606 -0.09844826 0.11323902 0.404796
0.17396176 -0.09532133 -0.14994006 0.059527677 -0.0023410777 -0.23231241 -0.18476039 0.26443717
0.09500063 -0.15103917 -0.34459537 0.10811363 0.054976217 -0.016435811 0.17533839 -0.3364819
-0.022801938 0.22087227 -0.066804685 0.32523522 -0.18594317 0.08184083 0.084739834 0.10931535
0.1008232 0.018272625 -0.057812996 0.12903827 0.022238374 0.2233056 -0.15767692 0.23817946
0.020005282 -0.09105302 -0.2171243 -0.060418274 0.08812171 -0.0967285 0.21505687 -0.008494286
-0.08270616 -0.08521789 -0.038989067 0.034719747 -0.34423378 0.15582198 0.12103805 -0.14269324
-0.023459958 0.06852463 0.05127295 0.08221943 -0.06205943 0.20802349 0.012754246 -0.3127048
0.0722805 0.021054892 0.07498329 -0.1406185 -0.21710889 -0.11703631 -0.21484402 0.054818977
-0.309204 0.34796548 0.20595938 -0.13324308 0.16085346 0.12723969 0.0060661817 0.3611367
-0.020016285 0.25911546 0.15230554 0.1131713 0.12472523 0.08521354 -0.0047305 0.029105425
-0.07992677 0.10096961 0.1386635 0.24664643 -0.17712443 -0.011929646 -0.31561375 -0.101727806
-0.08190743 0.31234643 -0.23667535 0.40702188 0.07281088 -0.10082252 0.018661767 0.017325407
0.11268241 -0.37731886 -0.26890728 -0.06708121 -0.005599604 -0.4538669 -0.37271792 0.024976913
-0.07616348 -0.052994866 -0.12860277 0.13172644 0.005426857 0.1134488 -0.09681518 -0.12793197
0.19069341 0.37989002 0.09113111 -0.115957856 0.030025959 -0.11663309 -0.041093435 -0.07273571
-0.024860842 -0.0395344 -0.15243725 -0.107734546 0.40500107 -0.18969789 -0.26249355 0.008817619
0.008796809 0.14759801 -0.17067257 0.23216256 -0.107797496 0.03177121 0.055110052 -0.33072838
-0.24366793 -0.013273595 0.20064282 -0.25806043 0.048262414 -0.3862047 0.2350466 -0.08885235
-0.20937572 0.27524763 -0.17813547 -0.13734299 -0.15453395 0.24925502 0.045959793 0.06421844
-0.008357875 -0.06241949 -0.19008759 0.20630687 -0.19707966 -0.014219846 -0.055197794 0.10029799
0.21706264 0.100042425 0.12853941 -0.2402831 -0.19418193 -0.2591935 0.06494148 0.14684187
-0.0035324008 -0.11957895 0.11034087 0.036790587 0.012683321 0.17626171 0.05738694 0.10635231
-0.018268606 -0.35145602 -0.2784853 -0.04233511 0.038694296 -0.24326353 -0.04488879 0.06611263
0.0038193022 -0.114647284 -0.029279063 -0.090219446 -0.106973976 0.01653759 -0.15680987 0.08434355
-0.0069074812 -0.35851455 0.19346449 -0.21996039 0.27417675 0.11611066 0.040442362 0.09620223
-0.11436592 0.10447481 0.11828497 -0.17470814 -0.053574625 -0.12971938 0.12459891 0.13078861
-0.18458368 -0.15014127 0.16723147 -0.21982089 0.38486487 0.16303383 0.07365612 -0.18994816
-0.36727643 -0.07401737 -0.32437682 -0.4165367 0.06775665 0.0772661 0.35696462 -0.22389263
0.18217908 -0.11037863 0.1043384 -0.28245044 0.087851405 -0.00539774 -0.16800413 -0.11339814
-0.0717634 -0.14511558 0.075977676 0.18125072 -0.098871976 0.07911282 0.03382804 0.0042070895
0.012430506 -0.1474544 -0.16976728 0.04225548 -0.36910492 0.0009886645 -0.20688759 -0.0669772
00000000: daf6 a9be 8aa0 55be 1464 67be 3f7e a03c
00000010: c3bd 353c 3e9f c9bd dce9 e73d 6c41 cf3e
00000020: 0823 323e d437 c3bd e389 19be 4bd3 733d
00000030: c46c 19bb 4ee3 6dbe d431 3dbe 4f64 873e
00000040: b18f c23d 03aa 1abe ce6e b0be ae6a dd3d
00000050: be2e 613d 65a4 86bc e88b 333e 5b47 acbe
00000060: 21cb babc 572c 623e e5d0 88bd 3b85 a63e
00000070: e367 3ebe 2a9c a73d 148c ad3d bae0 df3d
00000080: 657c ce3d 79b0 953c 52cd 6cbd 9c22 043e
00000090: 402d b63c 39aa 643e 0f76 21be 51e5 733e
000000a0: 1ee2 a33c 017a babd d555 5ebe 2779 77bd
000000b0: 2879 b43d 9819 c6bd de37 5c3e 9e2b 0bbc
000000c0: d961 a9bd b886 aebd 00b3 1fbd 4b36 0e3d
000000d0: 693f b0be cc8f 1f3e cce2 f73d 2d1e 12be
000000e0: 192f c0bc a456 8c3d 9603 523d a962 a83d
000000f0: 0732 7ebd 1c04 553e 2ff7 503c d81a a0be
00000100: cc07 943d 4f7b ac3c d790 993d 4cfe 0fbe
00000110: cb51 5ebe bcb0 efbd 1200 5cbe dd89 603d
00000120: fd4f 9ebe 8828 b23e 04e7 523e e070 08be
00000130: c5b6 243e 1f4b 023e d2c6 c63b e9e6 b83e
00000140: 31f9 a3bc c8aa 843e fcf5 1b3e 5bc6 e73d
00000150: f16f ff3d 7084 ae3d 4f02 9bbb 806e ee3c
00000160: a5b0 a3bd 28c9 ce3d cefd 0d3e e290 7c3e
00000170: 1b60 35be 9074 43bc 2098 a1be ab56 d0bd
00000180: 15bf a7bd dfeb 9f3e 065b 72be 2c65 d03e
00000190: df1d 953d 0a7c cebd 90e0 983c 03ee 8d3c
000001a0: 09c6 e63d f02f c1be 37ae 89be e061 89bd
000001b0: e27c b7bb 3e61 e8be e2d4 bebe 629c cc3c
000001c0: 99fb 9bbd 2511 59bd 72b0 03be 4ce3 063e
000001d0: c7d3 b13b d857 e83d 0947 c6bd 9900 03be
000001e0: 2245 433e f280 c23e f3a2 ba3d 507b edbd
000001f0: 00f9 f53c 54dd eebd 9751 28bd 76f6 94bd
00000200: f7a8 cbbc d3ee 21bd 8318 1cbe eea3 dcbd
00000210: 4d5c cf3e 2a40 42be 8e65 86be c677 103c
00000220: 7e20 103c ef23 173e cac4 2ebe 06bc 6d3e
00000230: efc4 dcbd 8722 023d 14bb 613d 3b55 a9be
00000240: 1684 79be 7e79 59bc 5075 4d3e 7f20 84be
00000250: cfae 453d 9fbc c5be 0eb0 703e 39f8 b5bd
00000260: 9766 56be 42ed 8c3e 2569 36be a4a3 0cbe
00000270: 263e 1ebe b53c 7f3e 5640 3c3d f584 833d
00000280: 78ef 08bc 94ab 7fbd 52a6 42be 1c42 533e
00000290: 40cf 49be 5bfa 68bc 1517 62bd 0869 cd3d
000002a0: ab45 5e3e 0be3 cc3d d69f 033e c60c 76be
000002b0: a1d7 46be 03b5 84be 0a00 853d b75d 163e
000002c0: da7f 67bb cfe5 f4bd 65fa e13d bab1 163d
000002d0: b4cd 4f3c f37d 343e 910e 6b3d 3dcf d93d
000002e0: 0ba8 95bc 0bf2 b3be a095 8ebe 9567 2dbd
000002f0: e97d 1e3d 131a 79be 4fdd 37bd 0f66 873d
00000300: 424d 7a3b 32cc eabd a5da efbc f9c4 b8bd
00000310: 2c15 dbbd d779 873c c492 20be 50bc ac3d
00000320: 2758 e2bb 388f b7be 8e1b 463e 4c3d 61be
00000330: e560 8c3e 6dcb ed3d e4a6 253d ad05 c53d
00000340: ae38 eabd e4f6 d53d 643f f23d b1e6 32be
00000350: 1171 5bbd 28d5 04be b72d ff3d 73ed 053e
00000360: 8103 3dbe a2be 19be ba3e 2b3e ba18 61be
00000370: 020d c53e 57f2 263e 05d9 963d c581 42be
00000380: a80b bcbe 6b96 97bd b814 a6be 4c44 d5be
00000390: 00c4 8a3d b03d 9e3d 11c4 b63e 1c44 65be
000003a0: 278d 3a3e 310e e2bd 5faf d53d 589d 90be
000003b0: 70eb b33d 86df b0bb 4609 2cbe 493d e8bd
000003c0: b1f8 92bd 2e99 14be 2f9a 9b3d ca99 393e
000003d0: 647d cabd e705 a23d 458f 0a3d a0db 893b
000003e0: 52a9 4b3c 49fe 16be 79d7 2dbe 1514 2d3d
000003f0: 52fb bcbe 1396 813a 57da 53be 582b 89bd

sequential/net/while/gru_cell/MatMul_4 f4 [20, 20]
-0.23309256 -0.14309607 -0.13767701 0.16522492 -0.25323468 -0.10862565 -0.19062454 -0.44555628
0.17516798 -0.30818436 0.036220066 0.22887844 0.30555797 -0.17459261 -0.14337493 -0.311122
0.14472736 -0.37566137 0.24839343 -0.12105232 0.08521075 -0.35455325 -0.27371195 0.20684142
0.16525973 -0.20212245 0.053327125 0.4486744 -0.022969685 0.016751435 -0.22427885 -0.28878552
-0.08018646 -0.094420336 -0.13573828 0.08054233 -0.30508575 -0.13015737 -0.43193293 0.04886377
-0.17202424 -0.1016067 0.14366232 0.08337716 0.40867788 0.1338096 0.1677906 0.053689227
0.43276343 0.00069426274 0.09338537 0.22384284 -0.17562783 0.17935571 -0.03063748 -0.505408
-0.22061749 0.092710316 -0.24239704 -0.23115341 0.0917204 0.11724454 -0.19152366 0.21193732
0.24995184 -0.026963519 0.2722145 0.19493319 -0.25600925 -0.21998556 0.46056348 -0.0662128
0.3838995 -0.045741152 0.1390107 -0.28173712 0.38896435 0.31239825 -0.22059067 -0.09649646
-0.2707342 -0.11142056 0.34262505 -0.069290906 0.26518485 0.013268246 0.00213813 -0.55209583
0.28450316 -0.05137006 -0.032829504 0.19885026 0.22341536 -0.09553321 0.041286524 -0.25802162
0.1401944 0.13673101 0.3291022 0.15801048 -0.040094968 0.010670958 0.044107378 0.054081976
-0.24204233 0.30652082 0.067458555 -0.2925109 -0.026170427 0.20260058 0.2722012 -0.08967841
-0.24882548 0.25776345 -0.3905521 -0.050053734 -0.019330395 0.41324967 -0.36402348 -0.073098764
-0.21971613 -0.11031998 -0.099518985 0.00047947263 0.045399167 0.092631 0.23569898 -0.06917659
0.28464943 -0.11267564 -0.3448337 -0.06964464 0.08045526 0.19688189 -0.19577773 0.20404306
-0.23839916 0.14566644 -0.07271477 0.22278549 0.07364603 0.034474242 0.24702553 -0.1982985
-0.085660435 0.20898592 0.05346382 0.004972536 -0.08653878 0.20587824 0.14219588 -0.06982484
-0.20383936 0.23285274 -0.23885952 -0.023860162 -0.18458691 -0.00835878 0.020130938 -0.20883422
0.05878581 -0.2352088 0.26763567 -0.03160419 -0.11554789 0.18522292 0.021129938 -0.1278141
0.099285915 -0.04879751 0.18880898 0.07677598 0.2511652 0.094620556 0.03268895 -0.3241929
-0.32887197 -0.16573595 -0.08860812 -0.442897 -0.15288965 0.053669397 0.03919932 0.23630907
-0.002640875 0.06900958 0.039487742 0.06153164 -0.26018533 -0.46206617 -0.1789304 0.037488043
0.08781562 -0.076827735 0.19058482 -0.25763097 0.19121067 -0.28599805 0.25496855 0.0862353
0.23122525 -0.052499708 -0.3049351 0.08216424 0.17817453 -0.24252692 0.39731035 0.08438202
0.2209979 0.016764771 0.26811475 0.031176304 -0.35119036 0.04408979 -0.3715446 -0.11592406
-0.25231418 0.06308168 -0.4715596 -0.3720353 0.15615506 0.19365568 -0.17071477 -0.13659015
-0.036840376 0.117332324 -0.06416568 -0.067174286 0.0439359 0.61582625 0.19132292 -0.33032605
-0.1623913 -0.11250352 0.08705393 -0.18114577 0.25396428 -0.08009767 -0.16756287 0.073959
0.31868902 -0.122025244 -0.08854661 0.06259932 -0.021596685 -0.07276456 0.11297713 0.25361025
-0.16707715 -0.11736669 -0.19701281 -0.23907696 0.1890189 0.18191971 0.2838721 -0.09747792
00000000: d1af 6ebe c787 12be 34fb 0cbe b930 293e
00000010: faa7 81be 2077 debd 1433 43be f41f e4be
00000020: 3c5f 333e 57ca 9dbe 7e5b 143d 1c5f 6a3e
00000030: 1872 9c3e 68c8 32be e1d0 12be 624b 9fbe
00000040: 6933 143e b056 c0be d95a 7e3e 47ea f7bd
00000050: f982 ae3d 0188 b5be f923 8cbe 3dce 533e
00000060: d939 293e 30f9 4ebe 8b6d 5a3d a7b8 e53e
00000070: ec2a bcbc 4e3a 893c 5ba9 65be b2db 93be
00000080: cc38 a4bd 735f c1bd fafe 0abe 61f3 a43d
00000090: 3334 9cbe f947 05be 5026 ddbe 6025 483d
000000a0: 1f27 30be 2c17 d0bd 371c 133e a5c1 aa3d
000000b0: 3a3e d13e 6205 093e 4dd1 2b3e 3ce9 5b3d
000000c0: 2b93 dd3e 2fff 353a d440 bf3d 0f37 653e
000000d0: c8d7 33be 06a9 373e 74fb fabc 6b62 01bf
000000e0: 8de9 61be e8de bd3d ee36 78be 7bb3 6cbe
000000f0: e8d7 bb3d e81d f03d c71e 44be 1906 593e
00000100: 60f3 7f3e 99e2 dcbc b35f 8b3e 919c 473e
00000110: a513 83be e543 61be face eb3e 949a 87bd
00000120: 7a8e c43e 135b 3bbd d258 0e3e d93f 90be
00000130: 5626 c73e aaf2 9f3e 85e2 61be f09f c5bd
00000140: ac9d 8abe 7630 e4bd 8d6c af3e 64e8 8dbd
00000150: 4fc6 873e 0f63 593c de1f 0c3b 2756 0dbf
00000160: 66aa 913e 6969 52bd 3b78 06bd 679f 4b3e
00000170: ffc6 643e eaa6 c3bd 0f1c 293d 691b 84be
00000180: 1f8f 0f3e 3703 0c3e 1580 a83e 80cd 213e
00000190: 9f3a 24bd 3ed5 2e3c f0a9 343d 1085 5d3d
000001a0: f2d9 77be 4cf0 9c3e b627 8a3d fdc3 95be
000001b0: 5d63 d6bc 8776 4f3e f55d 8b3e 50a9 b7bd
000001c0: 1bcc 7ebe 92f9 833e 72f6 c7be 2505 4dbd
000001d0: c75a 9ebc 7695 d33e 4961 babe ceb4 95bd
000001e0: 44fd 60be 71ef e1bd 9cd0 cbbd ba61 fb39
000001f0: 7af4 393d 52b5 bd3d 135b 713e 75ac 8dbd
00000200: 92bd 913e 7cc2 e6bd 0b8e b0be d9a1 8ebd
00000210: bac5 a43d 689b 493e f579 48be aaf0 503e
00000220: e91e 74be 9529 153e 7beb 94bd e121 643e
00000230: bbd3 963d dd34 0d3d 43f4 7c3e c30e 4bbe
00000240: bd6e afbd 6800 563e e1fc 5a3d a8f0 a23b
00000250: 3e3b b1bd bfd1 523e cc9b 113e 5300 8fbd
00000260: 44bb 50be f370 6e3e 9797 74be 6376 c3bc
00000270: 5a04 3dbe 44f3 08bc a3e9 a43c a3d8 55be
00000280: 64c9 703d 93da 70be 8b07 893e 6573 01bd
00000290: 5fa4 ecbd 14ab 3d3e b118 ad3c b3e1 02be
000002a0: 6a56 cb3d e6df 47bd 2457 413e ba3c 9d3d
000002b0: ba98 803e 6cc8 c13d d9e4 053d 9dfc a5be
000002c0: e861 a8be afb6 29be 2d78 b5bd 65c3 e2be
000002d0: 1b8f 1cbe 71d4 5b3d 778f 203d 01fb 713e
000002e0: 8812 2dbb e554 8d3d e6bd 213d 9a08 7c3d
000002f0: 0337 85be f093 ecbe 8839 37be 108d 193d
00000300: add8 b33d dc57 9dbd ab28 433e 35e8 83be
00000310: bbcc 433e 566e 92be 3d8b 823e 229c b03d
00000320: 50c6 6c3e ef09 57bd 7420 9cbe ba45 a83d
00000330: 6273 363e fa58 78be 436c cb3e 7bd0 ac3d
00000340: 464d 623e 4656 893c 5646 893e 7365 ff3c
00000350: 39cf b3be 7f97 343d 183b bebe 9869 edbd
00000360: 532f 81be f830 813d 4370 f1be 697b bebe
00000370: 1de7 1f3e ad4d 463e dacf 2ebe 4ade 0bbe
00000380: efe5 16bd ee4b f03d 4c69 83bd ac92 89bd
00000390: 21f6 333d caa6 1d3f 28ea 433e 7f20 a9be
000003a0: e849 26be 3f68 e6bd 5549 b23d 477e 39be
000003b0: 9b07 823e 3f0a a4bd 9a95 2bbe d177 973d
000003c0: 352b a33e 5fe8 f9bd ed57 b5bd 1334 803d
000003d0: 88eb b0bc 9605 95bd 8e60 e73d 34d9 813e
000003e0: 4616 2bbe f25d f0bd babd 49be 97d0 74be
000003f0: 2c8e 413e 2949 3a3e af57 913e 81a2 c7bd

sequential/net/while/gru_cell/MatMul_5 f4 [20, 20]
0.27283663 0.07003962 0.11205055 -0.32901797 -0.25065845 -0.20368835 -0.005722667 -0.45570865
0.06126767 -0.06167628 -0.027190218 -0.09484726 0.35969234 -0.48656577 0.41070142 -0.66700196
0.24319237 -0.019680513 -0.08763038 0.05987852 -0.30340594 0.06154487 -0.38200632 0.16419168
0.056963943 0.3338783 0.113326594 0.14218032 -0.08460628 -0.29976192 -0.60520303 -0.07348517
0.07540727 0.5071814 -0.24253246 -0.12899508 -0.14482719 0.39853925 0.44655412 0.6265495
-0.24520543 0.1832127 0.13696279 -0.1995949 0.074095 -0.28426197 -0.16611664 -0.31766185
0.124821566 0.42118335 0.24711338 0.17020842 0.19560249 -0.19391045 -0.17660177 0.050483964
0.46640143 0.26111114 -0.5010919 -0.1638425 0.13756616 -0.15333442 -0.12702623 0.047559302
-0.034167055 -0.04828454 -0.10752277 0.50365365 -0.2201455 -0.20661324 0.04601617 -0.1270603
-0.34461197 0.35329428 -0.086654246 0.23922142 0.03427361 -0.2933516 -0.18022801 -0.010571643
0.088452816 -0.15669534 0.017848922 0.16014992 -0.039478946 -0.04107856 0.0093799895 0.054264594
0.3364003 0.20249873 0.44412437 -0.037233774 0.13328026 0.20676103 0.07414971 0.37350166
-0.3484105 -0.09130026 0.14001459 0.040479816 0.4346059 0.043601 0.05846391 -0.06242103
0.06396294 -0.22194193 0.22526307 0.22222528 0.3338406 0.109907255 0.14523652 0.0012648473
0.11426577 -0.4686085 0.36446458 -0.011100394 -0.03322619 -0.11396566 -0.07572455 0.18496525
-0.018520376 -0.3598806 -0.25146842 -0.036684826 -0.2024668 0.021014476 -0.17996149 -0.13537231
0.4374499 -0.083190404 0.26532724 -0.122933224 -0.11144583 0.272018 0.029430812 -0.18503614
-0.38947803 -0.12771507 -0.35925147 -0.21931812 0.121529125 -0.4257743 -0.0061135218 -0.25716385
-0.18106931 0.13214184 -0.11674174 0.32233548 -0.29312554 -0.6193213 -0.24502356 -0.28675145
0.084322095 -0.09672307 0.24517861 -0.044763338 0.09243938 -0.1454651 -0.26472843 0.20414414
-0.15795729 0.18179597 0.113312475 -0.2283163 -0.2540371 -0.28017625 0.053571314 -0.5712851
0.2675624 0.21079879 -0.06002897 0.20418432 0.37727454 -0.39813983 -0.16193308 0.6154616
-0.13549939 0.19266811 -0.007897514 0.25292236 -0.095883675 0.3073313 -0.2439701 0.3081795
-0.16162229 -0.14211792 0.043027624 0.3913017 -0.0967788 0.25818852 0.07940898 0.039743975
-0.14918491 -0.0540684 -0.2507661 0.02048728 0.053541046 0.38137743 0.21917243 0.25807163
0.3053858 0.041873842 -0.09191863 -0.08919075 0.36169088 0.03411452 0.057678163 -0.22619298
-0.1551882 -0.058087826 -0.13393335 0.1774368 -0.0025034463 0.14859279 -0.26153722 0.45459002
-0.0046720267 -0.007683016 -0.6158079 0.14171335 -0.15631737 0.16000487 -0.19854288 0.21714346
-0.0036913538 -0.30248228 -0.17958122 -0.15332244 -0.023995562 0.23879184 0.5836223 0.19969541
-0.23108792 0.34761235 -0.104618385 -0.11099717 -0.03805889 0.0020536736 -0.4578542 -0.30239782
-0.07703286 0.27056867 0.091766335 0.046717416 -0.09436768 -0.053312324 0.02887096 0.048569705
-0.0846899 0.2025073 -0.06530353 0.30958235 -0.011374982 -0.44245127 -0.31281695 -0.05355228
00000000: 3eb1 8b3e ef70 8f3d c27a e53d 0b75 a8be
00000010: 4e56 80be ae93 50be 3685 bbbb a552 e9be
00000020: cff3 7a3d 44a0 7cbd 05be debc 483f c2bd
00000030: 9829 b83e 261f f9be 7547 d23e a4c0 2abf
00000040: 6c07 793e 0739 a1bc 8f77 b3bd 2e43 753d
00000050: 0658 9bbe 7916 7c3d 5596 c3be dd21 283e
00000060: 0653 693d 19f2 aa3e c617 e83d b897 113e
00000070: 0f46 adbd 657a 99be 96ee 1abf 657f 96bd
00000080: 206f 9a3d a4d6 013f 6e5a 78be 4917 04be
00000090: 944d 14be 560d cc3e bea2 e43e 8c65 203f
000000a0: 2217 7bbe 1c9c 3b3e f93f 0c3e 9b62 4cbe
000000b0: 1fbf 973d c98a 91be 7b1a 2abe 93a4 a2be
000000c0: 73a2 ff3d 58a5 d73e 4a0b 7d3e 1e4b 2e3e
000000d0: 054c 483e 7690 46be 18d7 34be 46c8 4e3d
000000e0: 2bcc ee3e 5cb0 853e 8f47 00bf 54c6 27be
000000f0: 25de 0c3e b303 1dbe 2a13 02be 8bcd 423d
00000100: c1f2 0bbd 03c6 45bd e634 dcbd 72ef 003f
00000110: d26d 61be 6c92 53be 747b 3c3d 181c 02be
00000120: fb70 b0be fde2 b43e c877 b1bd 76f6 743e
00000130: 7c62 0c3d 2e32 96be b18d 38be af34 2dbc
00000140: c026 b53d be74 20be e737 923c 57fe 233e
00000150: adb4 21bd fe41 28bd 87ae 193c 8d44 5e3d
00000160: a93c ac3e d45b 4f3e 4564 e33e 7182 18bd
00000170: 9f7a 083e 2ab9 533e cedb 973d 9c3b bf3e
00000180: dc62 b2be a1fb babd fc5f 0f3e 2ace 253d
00000190: aa84 de3e f696 323d da77 6f3d 32ad 7fbd
000001a0: 00ff 823d bf44 63be 5dab 663e 068f 633e
000001b0: 28ed aa3e 0e17 e13d e2b8 143e 3cc9 a53a
000001c0: 2c04 ea3d 74ed efbe 1a9b ba3e 6dde 35bc
000001d0: 2f18 08bd d466 e9bd 7915 9bbd 8867 3d3e
000001e0: 0bb8 97bc 4542 b8be 78c0 80be d442 16bd
000001f0: 7553 4fbe 8d26 ac3c d347 38be 0a9f 0abe
00000200: 6ff9 df3e bb5f aabd f9d8 873e 6ac4 fbbd
00000210: b63d e4bd f145 8b3e e318 f13c 1d7a 3dbe
00000220: aa69 c7be bdc7 02be cfef b7be ee94 60be
00000230: 43e4 f83d 17ff d9be f053 c8bb fbaa 83be
00000240: 3c6a 39be 3150 073e 4b16 efbd 2809 a53e
00000250: 8d14 96be d78b 1ebf 75e7 7abe 16d1 92be
00000260: 10b1 ac3d bf16 c6bd 1a10 7b3e c359 37bd
00000270: dc50 bd3d cef4 14be 7c8a 87be 290b 513e
00000280: 8ebf 21be b928 3a3e 5f10 e83d c0cb 69be
00000290: 2711 82be 4373 8fbe 986d 5b3d be3f 12bf
000002a0: f0fd 883e a3db 573e f0e0 75bd b215 513e
000002b0: 212a c13e fcd8 cbbe c9d1 25be e48e 1d3f
000002c0: 5ac0 0abe ca4a 453e 9364 01bc 0a7f 813e
000002d0: a95e c4bd 875a 9d3e 4cd3 79be b4c9 9d3e
000002e0: 5080 25be 5c87 11be bc3d 303d b258 c83e
000002f0: f733 c6bd 4931 843e 2da1 a23d 94ca 223d
00000300: eec3 18be d476 5dbd 6a64 80be f1d4 a73c
00000310: db4d 5b3d e743 c33e bd6e 603e f721 843e
00000320: 875b 9c3e e883 2b3d d63f bcbd a4a9 b6bd
00000330: 8c2f b93e abbb 0b3d f03f 6c3d 229f 67be
00000340: a8e9 1ebe 80ed 6dbd d325 09be feb1 353e
00000350: dc10 24bb b528 183e 35e8 85be 06c0 e83e
00000360: cd17 99bb cfc1 fbbb 96a5 1dbf 4e1d 113e
00000370: a911 20be 51d8 233e d34e 4bbe db5a 5e3e
00000380: a4ea 71bb f5de 9abe 24e4 37be 8f00 1dbe
00000390: 5792 c4bc d985 743e 4568 153f f47c 4c3e
000003a0: 50a2 6cbe 3ffa b13e 2a42 d6bd 7c52 e3bd
000003b0: a3e3 1bbd ed96 063b de6b eabe e3d3 9abe
000003c0: 67c3 9dbd fa87 8a3e fdef bb3d c35a 3f3d
000003d0: d843 c1bd 065e 5abd cb82 ec3c 07f1 463d
000003e0: e671 adbd 135e 4f3e dbbd 85bd 9481 9e3e
000003f0: 225e 3abc f988 e2be 8b29 a0be a359 5bbd

sequential/net/while/gru_cell/MatMul f4 [20, 13]
-0.0035481215 0.03727298 0.02752352 0.050255395 -0.035344448 -0.050872523 0.030921724 -0.068151675
-0.13319089 0.13291536 0.15533264 -0.025527589 0.061726138 -0.08595031 -0.12735097 -0.12552026
-0.036396068 -0.012235832 -0.16716298 -0.058115803 0.12678918 0.5218456 -0.15501125 0.2560898
0.18489076 0.14787212 -0.00483886 -0.039211802 -0.08206485 -0.021657942 0.15769635 0.1540244
-0.09887334 0.12092805 0.11537491 -0.27617842 0.02056351 -0.096647926 -0.046620402 0.102484345
0.05352526 -0.22304498 -0.06643888 0.13727412 0.04950603 0.021702895 0.1755554 0.13647671
-0.04057356 -0.2468079 0.06102073 -0.17888264 -0.043375783 -0.042370304 -0.044000518 0.10376266
0.38713235 -0.40203756 -0.18520439 0.1892635 -0.12325008 -0.04890198 0.005948608 -0.08674795
-0.68072873 -0.0303474 0.0007893441 -0.05062646 -0.15851922 0.11544068 0.59098935 0.42078573
-0.32059276 -0.21484816 -0.0054290737 -0.08069925 0.000693966 0.18788598 -0.050135575 0.15165205
0.049603064 0.52141726 0.37007806 -0.19210872 -0.39411607 -0.16893226 -0.50368583 -0.18566352
0.21372469 0.13861808 -0.07365875 -0.042170323 0.10872585 -0.07432433 -0.24760218 -0.03251425
-0.09153238 -0.006949354 0.05689477 -0.10746464 0.0365254 -0.010577567 -0.08362083 -0.18344401
-0.025377452 -0.3708097 0.11092967 -0.08587762 0.19557528 0.06924015 0.420461 0.21083999
0.005861362 -0.039818704 -0.097781755 0.16689363 0.016324714 -0.0454272 -0.0068935207 -0.02136285
-0.06433227 -0.03262383 -0.20073469 -0.019486237 -0.097137846 -0.48721686 0.0699607 0.19801864
0.08784064 0.34268287 0.08357275 0.030964732 -0.119730316 -0.18387684 0.034599703 0.23964857
0.054576654 0.14216833 0.46775556 -0.42447338 0.25053555 -0.32369357 -0.22754431 0.0972517
0.4995697 -0.018210514 -0.0040648384 -0.35577226 -0.052175783 -0.112934805 -0.07023853 -0.14616413
-0.09881551 0.22506765 -0.4388918 -0.026376368 0.07244389 0.18068099 -0.24911574 -0.23989189
0.33746466 -0.08614041 0.091272704 0.18440756 0.2677624 0.49766278 0.008625947 0.057938118
0.27745405 0.033427626 -0.03007373 0.07274083 -0.045563877 -0.24743752 -0.06345975 -0.15851273
-0.17473045 -0.0959296 0.066037185 -0.2523621 -0.19763005 -0.14466555 0.035651285 0.053778447
-0.15628783 -0.3497755 0.028871741 0.45300755 -0.020646488 -0.4397099 -0.017700147 -0.029188188
-0.23886651 -0.09724334 0.35818937 -0.200874 0.104693234 -0.22253928 -0.010159677 0.074156456
-0.04400634 -0.3653489 -0.21737342 0.33184242 0.16526243 -0.07266806 -0.24808563 -0.20766765
-0.02368878 -0.035775736 0.07076955 -0.31356898 0.089831226 0.07521818 -0.15400288 0.3702529
0.008683737 -0.053573757 -0.23452595 0.33866486 0.20873709 -0.053016268 -0.046530094 0.22624768
-0.08900247 -0.13585107 -0.046756692 -0.086433746 -0.0823807 -0.03231783 0.25701523 0.0077574975
0.1053248 -0.34763053 -0.12739585 -0.04730823 0.10800062 0.15171267 0.041847344 -0.11642881
-0.00062231056 0.03823216 -0.004596849 0.03299099 0.041642476 0.028088244 -0.065045096 -0.0811493
0.101933174 0.2992884 0.08196535 0.07445371 0.023363475 0.40106034 0.04207807 -0.10827611
00000000: 9a87 68bb 8dab 183d 0179 e13c 9ad8 4d3d
00000010: 57c5 10bd b55f 50bd 8e4f fd3c 1b93 8bbd
00000020: 3163 08be f71a 083e 850f 1f3e 3c1f d1bc
00000030: 8cd4 7c3d b706 b0bd 4b68 02be 6288 00be
00000040: 0b14 15bd cd78 48bc c62c 2bbe d60a 6ebd
00000050: 06d5 013e ac97 053f 45bb 1ebe 341e 833e
00000060: 0154 3d3e ca6b 173e 4d8f 9ebb 8e9c 20bd
00000070: 9e11 a8bd ff6b b1bc 277b 213e 93b8 1d3e
00000080: 1b7e cabd 20a9 f73d ae49 ec3d 4267 8dbe
00000090: ce74 a83c 59ef c5bd 09f5 3ebd 50e3 d13d
000000a0: 4e3d 5b3d e765 64be 1c11 88bd 9691 0c3e
000000b0: d6c6 4a3d 45ca b13c cbc4 333e 8dc0 0b3e
000000c0: 7630 26bd 36bb 7cbe dff0 793d 032d 37be
000000d0: ceaa 31bd 7c8c 2dbd e339 34bd 8481 d43d
000000e0: 3636 c63e ded7 cdbe 38a6 3dbe 4ace 413e
000000f0: 8a6a fcbd 714d 48bd 8aec c23b e9a8 b1bd
00000100: 3d44 2ebf 1c9b f8bc fceb 4e3a b15d 4fbd
00000110: dd52 22be 2a6c ec3d 144b 173f 3a71 d73e
00000120: bc24 a4be 2801 5cbe 5fe6 b1bb a645 a5bd
00000130: 45eb 353a 2f65 403e f65a 4dbd ad4a 1b3e
00000140: 952c 4b3d 9a7b 053f df7a bd3e 26b8 44be
00000150: 95c9 c9be 94fc 2cbe 8ef1 00bf 941e 3ebe
00000160: a5da 5a3e e6f1 0d3e 66da 96bd caba 2cbd
00000170: a9ab de3d 5b37 98bd 6d8b 7dbe aa2d 05bd
00000180: 5475 bbbd 68b7 e3bb 7e0a 693d 6c16 dcbd
00000190: a89b 153d 884d 2dbc 6641 abbd bfd8 3bbe
000001a0: 60e4 cfbc c5da bdbe 182f e33d 9be0 afbd
000001b0: e344 483e c8cd 8d3d aa46 d73e 70e6 573e
000001c0: ab10 c03b f018 23bd cd41 c8bd 2ae6 2a3e
000001d0: 68bb 853c df11 3abd 0be3 e1bb 2501 afbc
000001e0: a3c0 83bd 91a0 05bd 658d 4dbe 9aa1 9fbc
000001f0: 35f0 c6bd 7d74 f9be 8e47 8f3d 66c5 4a3e
00000200: cbe5 b33d 2174 af3e 3128 ab3d c0a9 fd3c
00000210: 2b35 f5bd 364a 3cbe 6bb8 0d3d 6f66 753e
00000220: c58b 5f3d 9394 113e a87d ef3e 9354 d9be
00000230: 3246 803e 2abb a5be 6001 69be e62b c73d
00000240: 9ac7 ff3e 372e 95bc 5632 85bb c827 b6be
00000250: 46b6 55bd 5d4a e7bd 38d9 8fbd 0dac 15be
00000260: c95f cabd 2278 663e 6db6 e0be 4113 d8bc
00000270: 765d 943d 7004 393e 3218 7fbe 38a6 75be
00000280: 2bc8 ac3e 626a b0bd 2fed ba3d 56d5 3c3e
00000290: 2718 893e a8cd fe3e d853 0d3c 8550 6d3d
000002a0: 750e 8e3e 68eb 083d 2f5d f6bc 25f9 943d
000002b0: 30a1 3abd 4360 7dbe 2ff7 81bd 2951 22be
000002c0: 8aec 32be bd76 c4bd 813e 873d 9b35 81be
000002d0: 885f 4abe 3523 14be 1507 123d ca46 5c3d
000002e0: eb09 20be c615 b3be 6e84 ec3c 9bf0 e73e
000002f0: d322 a9bc a821 e1be e6ff 90bc 111c efbc
00000300: 6c99 74be 8427 c7bd 9964 b73e eab1 4dbe
00000310: 6869 d63d 56e1 63be c674 26bc 57df 973d
00000320: fe3f 34bd 030f bbbe 2397 5ebe 40e7 a93e
00000330: 8e3a 293e fed2 94bd 290a 7ebe d4a6 54be
00000340: f90e c2bc 9489 12bd a0ef 903d 1d8c a0be
00000350: 6ff9 b73d fd0b 9a3d eeb2 1dbe ca91 bd3e
00000360: 3c46 0e3c 2870 5bbd 9227 70be 7b65 ad3e
00000370: 2dbf 553e 9627 59bd 5796 3ebd 79ad 673e
00000380: ed46 b6bd 8b1c 0bbe f283 3fbd 2d04 b1bd
00000390: 36b7 a8bd b35f 04bd 8097 833e 9b32 fe3b
000003a0: 87b4 d73d a1fc b1be 0f74 02be 46c6 41bd
000003b0: 6e2f dd3d 915a 1b3e 1f68 2b3d 3a72 eebd
000003c0: 8e22 23ba 5399 1c3d 2aa1 96bb 8f21 073d
000003d0: 4d91 2a3d 5119 e63c 5d36 85bd 9b31 a6bd
000003e0: 57c2 d03d 543c 993e 73dd a73d 307b 983d
000003f0: c264 bf3c c857 cd3e 0e5a 2c3d ddbf ddbd

sequential/net/while/gru_cell/MatMul_1 f4 [20, 13]
-0.2230096 -0.008091491 0.08095519 -0.13805716 -0.06771237 0.39246792 -0.071198806 -0.4330598
-0.44328773 -0.19171685 -0.12841742 0.601858 0.4802531 -0.11843628 0.05919357 0.13945568
-0.022271901 -0.18644023 -0.16621436 0.014228285 -0.035316303 -0.11090716 0.42266172 0.2181337
-0.08214904 0.447116 -0.36654705 0.16022642 -0.1738836 0.2071555 -0.09953561 0.36362696
0.57744294 -0.056578178 0.16707696 0.29670215 -0.09773284 -0.07124015 0.074016474 0.07685815
-0.101025656 0.0878168 0.16152287 -0.43355885 0.3182525 0.26897782 -0.23503602 -0.18399087
-0.1302549 0.21563773 0.36611137 -0.014892359 0.04162224 0.13299824 0.07675427 0.093484186
0.07936624 -0.2819899 -0.22375576 -0.5552286 -0.18786523 -0.059845593 0.5585465 0.5083883
-0.45821956 0.13482764 0.0036315422 -0.20652443 0.12340582 -0.008512447 0.043837883 0.30425772
-0.25738195 0.004304203 0.081686236 -0.064483054 0.24108832 0.19787972 -0.034633286 0.26395118
-0.15131304 -0.46518755 -0.069048434 -0.56730694 0.019584846 0.5304164 -0.187882 -0.129939
0.19836825 0.17360903 -0.38824746 0.04279077 0.36322755 0.044620316 0.12864281 -0.16375986
-0.35330403 -0.6185133 0.10023857 0.07200564 0.51734424 0.16061413 0.15156603 0.43524554
-0.09932136 0.034091435 -0.1283616 -0.22141673 -0.061502926 -0.15723105 -0.3653774 0.5810989
-0.018605778 -0.23521236 0.072682 -0.2293886 -0.082477726 -0.02824168 -0.11807654 -0.17749576
0.052413996 0.3705783 0.49814153 0.07104278 0.042674437 -0.05459173 -0.5127993 -0.1356766
0.48407495 0.14570422 0.05356653 -0.0347936 0.1846832 0.21098438 -0.29420137 -0.054831427
0.21987587 -0.10870042 0.33996093 0.89997405 0.091983706 -1.2296476 -0.24405657 0.14365023
-0.04301095 0.33225244 0.35217655 -0.42720243 -0.42000562 0.07897297 -0.1757369 -0.060515165
0.44437262 0.046475887 -0.11091844 0.039492752 -0.5217639 -0.16650228 -0.3945953 0.12307465
0.20891514 0.28964388 0.26788583 -0.30463445 -0.26155466 -0.6116274 -0.12854631 0.21472743
-0.15683189 0.025907677 -0.2026446 -0.03238239 0.35081223 -0.15842928 0.14611535 0.17148235
0.29340357 0.3527112 -0.042058058 0.007000086 0.25213304 -0.22562267 0.23111995 -0.00017934748
0.24362436 0.22160947 -0.39367893 -0.017257731 0.06809897 -0.14118324 0.043842424 0.07177705
-0.157449 -0.80798966 -0.076977134 0.005911428 0.012816488 -0.08677535 -0.25291583 0.17665686
-0.03461714 -0.16789658 0.25959378 0.5362123 -0.16876434 -0.42143536 -0.5962389 0.1789374
-0.13843529 0.1485232 -0.16557176 -0.057122644 0.25266048 0.3218138 -0.15959743 -0.098405346
-0.060234554 0.082094476 -0.020453867 -0.17580889 0.069696195 -0.7996491 0.05055978 0.09028258
0.28521425 0.1629809 0.24623224 -0.3346227 -0.23669818 -0.13864338 0.30331567 -0.19044471
-0.4072082 0.37406632 0.034382127 0.014311789 -0.32592264 0.17545761 -0.30430648 0.12711543
0.3036501 0.20604579 -0.36985287 -0.011309029 -0.073509626 0.24449342 -0.07261651 0.04915665
-0.019484593 0.1298322 0.030186001 0.19660556 -0.02590153 -0.09837484 -0.11253283 -0.022057164
00000000: a15c 64be 2c92 04bc d6cb a53d db5e 0dbe
00000010: c8ac 8abd 8ef1 c83e aed0 91bd 04ba ddbe
00000020: 9cf6 e2be 6c51 44be db7f 03be 5e13 1a3f
00000030: bce3 f53e b88e f2bd f574 723d 78cd 0e3e
00000040: 9073 b6bc 30ea 3ebe 1934 2abe c11d 693c
00000050: d4a7 10bd 4b23 e3bd 1e67 d83e 715e 5f3e
00000060: c23d a8bd 63ec e43e 0eac bbbe 6512 243e
00000070: 8b0e 32be 9220 543e 53d9 cbbd 502d ba3e
00000080: 4dd3 133f 85be 67bd 3916 2b3e 58e9 973e
00000090: 2828 c8bd 5be6 91bd f395 973d ce67 9d3d
000000a0: 8ae6 cebd 4bd9 b33d 4066 253e 6dfb ddbe
000000b0: fef1 a23e 76b7 893e 48ad 70be 1a68 3cbe
000000c0: 8a61 05be 23d0 5c3e f372 bb3e 15ff 73bc
000000d0: 157c 2a3d b130 083e 5831 9d3d a374 bf3d
000000e0: c48a a23d fb60 90be 3b20 65be 7623 0ebf
000000f0: be5f 40be a720 75bd e7fc 0e3f bc25 023f
00000100: c19b eabe 4210 0a3e 2bff 6d3b 247b 53be
00000110: 31bc fc3d ca77 0bbc 5a8f 333d abc7 9b3e
00000120: 91c7 83be 460a 8d3b 1d4b a73d b10f 84bd
00000130: dbdf 763e fba0 4a3e a2db 0dbd 9c24 873e
00000140: cef1 1abe 102d eebe 4469 8dbd 073b 11bf
00000150: 6670 a03c 5fc9 073f 2464 40be bb0e 05be
00000160: 0c21 4b3e 91c6 313e 5fc8 c6be 6045 2f3d
00000170: f6f8 b93e cbc3 363d f1ba 033e aab0 27be
00000180: 44e4 b4be e356 1ebf e149 cd3d b177 933d
00000190: ac70 043f 0878 243e 2034 1b3e 81d8 de3e
000001a0: ff68 cbbd 76a3 0b3d 3971 03be 11bb 62be
000001b0: 7eea 7bbd 2d01 21be bf12 bbbe e6c2 143f
000001c0: 256b 98bc 82db 70be 4dda 943d d8e4 6abe
000001d0: 15ea a8bd 185b e7bc 1dd2 f1bd 73c1 35be
000001e0: 0fb0 563d 70bc bd3e 680c ff3e e17e 913d
000001f0: 64cb 2e3d 949b 5fbd d146 03bf ceee 0abe
00000200: acd8 f73e 7d33 153e 9468 5b3d bc83 0ebd
00000210: 981d 3d3e 4a0c 583e 90a1 96be eb96 60bd
00000220: 2427 613e 539e debd 5c0f ae3e b364 663f
00000230: f461 bc3d 1865 9dbf f7e9 79be 0c19 133e
00000240: 402c 30bd fe1c aa3e 7c50 b43e 47ba dabe
00000250: fa0a d7be 95bc a13d 60f4 33be c0de 77bd
00000260: cf84 e33e 805d 3e3d 3529 e3bd 27c3 213d
00000270: 5292 05bf 937f 2abe 6508 cabe 900e fc3d
00000280: daed 553e 344c 943e 5528 893e 0cf9 9bbe
00000290: 7eea 85be 9d93 1cbf a5a1 03be 82e1 5b3e
000002a0: 8a98 20be 563c d43c 1182 4fbe 66a3 04bd
000002b0: a99d b33e 493b 22be 439f 153e 1299 2f3e
000002c0: fe38 963e 9096 b43e 1245 2cbd fa60 e53b
000002d0: 9517 813e a109 67be b5aa 6c3e 390f 3cb9
000002e0: aa78 793e 98ed 623e 4990 c9be 1660 8dbc
000002f0: 7977 8b3d 5792 10be 1d94 333d d9ff 923d
00000300: 503a 21be 69d8 4ebf 30a6 9dbd a7b4 c13b
00000310: 3ffc 513c 46b7 b1bd 2f7e 81be 89e5 343e
00000320: b4ca 0dbd 15ed 2bbe 7ae9 843e 3645 093f
00000330: 8fd0 2cbe 60c6 d7be 1da3 18bf 5e3b 373e
00000340: fbc1 0dbe 7716 183e a58b 29be 6ff9 69bd
00000350: b75c 813e c7c4 a43e 826d 23be be88 c9bd
00000360: 82b8 76bd 2621 a83d de8e a7bc 3f07 34be
00000370: e1bc 8e3d ceb5 4cbf c617 4f3d 13e6 b83d
00000380: 9a07 923e 77e4 263e 4e24 7c3e ab53 abbe
00000390: 0261 72be 88f8 0dbe 314c 9b3e f003 43be
000003a0: 987d d0be 9f85 bf3e 46d4 0c3d fe7b 6a3c
000003b0: 55df a6be 29ab 333e 0fce 9bbe 8c2a 023e
000003c0: 0778 9b3e abfd 523e 5b5d bdbe 8149 39bc
000003d0: 378c 96bd 7c5c 7a3e f7b7 94bd 7c58 493d
000003e0: 279e 9fbc bbf2 043e a248 f73c f852 493e
000003f0: 722f d4bc c078 c9bd 9d77 e6bd 3ab1 b4bc

sequential/net/while/gru_cell/MatMul_2 f4 [20, 13]
0.07574023 0.23117727 -0.2159178 -0.28259876 0.18811627 -0.10281802 -0.288016 -0.055216685
-0.053000428 -0.19511391 -0.047583904 -0.15509446 0.080281585 0.2104094 -0.19941851 -0.22550589
0.03260275 -0.2168095 0.12916984 -0.08717396 0.31350696 0.3440245 -0.11308725 -0.03409217
0.1304275 0.02577261 0.19991516 0.06626287 -0.30603707 0.028852949 0.080019124 0.06770917
-0.12406625 -0.34619877 0.13428289 -0.19396475 0.020490518 0.09561664 0.40118694 -0.16627558
-0.05559737 0.12418861 0.124869265 0.15679167 0.53882533 0.17847334 -0.36632568 -0.34506646
-0.33088794 0.10942874 0.50681686 -0.18340303 -0.19889185 -0.094067454 0.31290972 0.17184998
0.07844254 -0.03588292 -0.016939241 -0.13959876 -0.12881136 0.33373022 0.67821056 -0.4035157
-0.568409 -0.27202567 0.1707917 -0.045490567 0.056706816 0.1649783 0.14657135 0.14467876
-0.17530605 -0.15450491 -0.06317497 0.11167132 -0.012274329 -0.3494204 -0.20993823 -0.20765096
0.0975976 0.04885273 0.11627982 -0.27837023 -0.013598891 0.19466732 0.36462498 0.2757594
0.1719663 0.030975128 0.10029345 -0.05161274 -0.07863224 -0.1301107 0.14317626 0.07431548
-0.06010129 0.20846756 0.011499593 0.15891129 -0.20726784 0.22800848 0.15353733 -0.07284022
0.11165438 0.19050613 0.2500923 0.29800373 -0.24762954 -0.073513485 0.0274426 -0.36128902
-0.43601486 0.08175601 0.04991753 -0.22527353 0.0042219637 -0.078399606 -0.005262042 -0.005048753
0.118648656 0.008048959 -0.32334685 -0.06436845 0.149636 -0.13983896 -0.042331744 0.37080297
0.061031707 -0.35169065 0.16876002 -0.018811913 -0.115195826 0.09772681 -0.4278163 -0.023564793
0.16932404 -0.13038224 -0.0840797 0.18260165 -0.17635088 0.26457363 0.04397266 -0.088729106
-0.026282763 0.0022808318 0.11409039 0.08154766 -0.12211383 0.16797361 -0.07883436 -0.19194657
-0.039911922 0.13364929 -0.104407534 -0.25420702 0.17002332 -0.12179536 0.1587301 -0.19781467
0.04538927 0.100023225 -0.055440377 0.03682664 0.012316659 0.015843254 0.097377166 -0.5395515
0.16644707 0.024234898 -0.032317635 -0.09116581 0.14042833 0.295078 -0.2421067 -0.289077
0.28209516 0.07377626 0.21852377 -0.21971013 -0.2220492 -0.03621817 0.2578479 0.019961832
-0.043222737 -0.30643982 -0.07015451 -0.34016642 -0.48472312 0.016531102 -0.08640039 -0.050409336
0.035073426 -0.22927488 -0.1207909 -0.2594226 -0.1973839 0.076330796 -0.16090795 0.2772406
0.30615428 0.110190175 -0.014747967 -0.021056922 -0.30551264 -0.11220139 0.17619315 -0.03059927
0.12054391 -0.23360415 0.43712735 -0.07437237 -0.2480371 -0.02762938 -0.19019821 0.13006398
0.18691151 0.6293671 0.006399062 -0.14221832 0.22234909 -0.12381663 -0.12090196 0.095217355
-0.08585059 0.19011623 0.2857979 -0.015884615 -0.2662554 0.17924558 -0.30518982 -0.13885845
-0.23391695 -0.20552799 -0.43933523 -0.1152639 0.22934279 0.28448 0.14166021 -0.03940557
0.09707265 0.1123879 0.075034566 0.35389683 0.27521178 0.20860603 -0.03668276 -0.11547036
0.07558754 -0.019536078 0.070730686 0.27066073 -0.04961273 0.16805995 -0.1527571 -0.46600735
00000000: b21d 9b3d bcb9 6c3e 8e19 5dbe c9b0 90be
00000010: 8da1 403e 4192 d2bd d576 93be e42a 62bd
00000020: fa16 59bd f1cb 47be 57e7 42bd 15d1 1ebe
00000030: ac6a a43d 9075 573e 5e34 4cbe 04eb 66be
00000040: 768a 053d 4f03 5ebe 1945 043e 4388 b2bd
00000050: fc83 a03e fb23 b03e 4a9a e7bd 3ba4 0bbd
00000060: c98e 053e 1521 d33c 8fb6 4c3e d4b4 873d
00000070: e4b0 9cbe 055d ec3c 11e1 a33d 1bab 8a3d
00000080: 7216 febd f740 b1be 7481 093e b29e 46be
00000090: bbdb a73c a8d2 c33d 6068 cd3e 2544 2abe
000000a0: 11ba 63bd 9956 fe3d 75bb ff3d ff8d 203e
000000b0: 75f0 093f b7c1 363e 0a8f bbbe 8dac b0be
000000c0: 256a a9be 2d1c e03d c0be 013f 01ce 3bbe
000000d0: 4eaa 4bbe 70a6 c0bd b435 a03e 71f9 2f3e
000000e0: 7ba6 a03d f8f9 12bd 2ac4 8abc faf2 0ebe
000000f0: 20e7 03be b0de aa3e 359f 2d3f 9c99 cebe
00000100: 4183 11bf f346 8bbe 05e4 2e3e 5154 3abd
00000110: 6845 683d 12f0 283e cd16 163e ab26 143e
00000120: 6e83 33be 8936 1ebe e161 81bd efb3 e43d
00000130: 441a 49bc 3be7 b2be 0cfa 56be 74a2 54be
00000140: 40e1 c73d cd19 483d 1d24 ee3d 8b86 8ebe
00000150: e2cd 5ebc df56 473e 20b0 ba3e 5630 8d3e
00000160: ef17 303e 8dbf fd3c a766 cd3d e167 53bd
00000170: f109 a1bd bd3b 05be cc9c 123e b732 983d
00000180: c52c 76bd 8578 553e ca68 3c3c a4b9 223e
00000190: 053e 54be 0e7b 693e e438 1d3e 412d 95bd
000001a0: 0dab e43d 0a14 433e 190c 803e f293 983e
000001b0: 9992 7dbe 3d8e 96bd 4ecf e03c e0fa b8be
000001c0: 573d dfbe b26f a73d 5376 4c3d 1bae 66be
000001d0: 6658 8a3b f98f a0bd 356d acbb 0370 a5bb
000001e0: 11fe f23d c8df 033c b88d a5be 9bd3 83bd
000001f0: 2e3a 193e f231 0fbe 0d64 2dbd e3d9 bd3e
00000200: 62fc 793d cc10 b4be 6dcf 2c3e 711b 9abc
00000210: caeb ebbd fe24 c83d bd0a dbbe f40a c1bc
00000220: 4863 2d3e ec82 05be fa31 acbd edfb 3a3e
00000230: 5395 34be 3276 873e ad1c 343d 9bb7 b5bd
00000240: f34e d7bc 027a 153b 39a8 e93d 7602 a73d
00000250: d116 fabd 4601 2c3e e973 a1bd a48d 44be
00000260: af7a 23bd 5cdb 083e 9ed3 d5bd 6c27 82be
00000270: 981a 2e3e d96f f9bd 258a 223e ee8f 4abe
00000280: 19ea 393d fad8 cc3d 7315 63bd 88d7 163d
00000290: d0cb 493c b6c9 813c ae6d c73d 0c20 0abf
000002a0: 1a71 2a3e 4488 c63c 7f5f 04bd 24b5 babd
000002b0: 72cc 0f3e 7714 973e d2ea 77be e701 94be
000002c0: c76e 903e 0218 973d b2c4 5f3e b1fb 60be
000002d0: de60 63be 8159 14bd a404 843e ff86 a33c
000002e0: 530a 31bd aee5 9cbe 2bad 8fbd 4b2a aebe
000002f0: a12d f8be 3c6c 873c b0f2 b0bd 057a 4ebd
00000300: 27a9 0f3d 09c7 6abe 3861 f7bd 0ad3 84be
00000310: 011f 4abe 5253 9c3d 0ec5 24be 7bf2 8d3e
00000320: 41c0 9c3e 63ab e13d 75a1 71bc 917f acbc
00000330: 276c 9cbe d8c9 e5bd fa6b 343e 52ab fabc
00000340: badf f63d ed35 6fbe 28cf df3e 8b50 98bd
00000350: 70fd 7dbe 0257 e2bc 52c3 42be 7e2f 053e
00000360: bb65 3f3e 341e 213f 39af d13b aea1 11be
00000370: 7baf 633e 9393 fdbd 729b f7bd 5101 c33d
00000380: 6fd2 afbd d4ad 423e 1a54 923e 7420 82bc
00000390: a152 88be 278c 373e d741 9cbe e930 0ebe
000003a0: ed87 6fbe ee75 52be 8cf0 e0be 7b0f ecbd
000003b0: d6d8 6a3e 5da7 913e 600f 113e bc67 21bd
000003c0: 07ce c63d a12b e63d b9ab 993d f731 b53e
000003d0: 8fe8 8c3e d29c 553e a940 16bd b97b ecbd
000003e0: a4cd 9a3d 200a a0bc 40db 903d 0b94 8a3e
000003f0: b836 4bbd e817 2c3e 5b6c 1cbe 8498 eebe
