buildroot-external/rootfs-overlay/home/mycroft/.local/share/precise-lite/wakewords/en/android.tflite (tflite, 21888 bytes, 10 tensors)

sequential/dense_1/MatMul f4 [1, 20]
00000000: 42b6 4cbe bb8b 84be 27ec a7be a5ec ae3e
00000010: aa2f 4cbe cb22 77bc 4ff5 1d3e 08c2 1a3d
00000020: 888e cfbe 6abe 6ebf 6f91 9b3e 44ee eabd
00000030: bc98 26be 73cc 2e3e b9ac 2cbe 2e16 f63d
00000040: 4b43 263e c839 da3d a7fe 283e 9c46 813e
-0.19991401 -0.25887856 -0.32797357 0.3416492 -0.19940057 -0.015083979 0.15425609 0.0377827
-0.4053843 -0.932593 0.30384395 -0.11471227 -0.16269201 0.17070179 -0.16862763 0.12015949
0.16236608 0.10655552 0.16503392 0.25249183

sequential/net/while/gru_cell/strided_slice_3 f4 [20]
00000000: 66cf 49be e1ab 283f 5f25 c93e 1cc5 78be
00000010: a945 a1be b113 023f 2700 e6bd d20b 913e
00000020: 4336 ff3e bfd5 293c bcbb 52bd 3e33 ecbe
00000030: 34e1 a9be bac8 cf3e 024b bebe 55ff bf3e
00000040: 3d9c bf3e f04c 35be 7c0e 88be 2eaa 99be
-0.19708022 0.65887266 0.39286324 -0.24293941 -0.3149846 0.50811297 -0.11230498 0.2832933
0.49846086 0.010365902 -0.05144857 -0.46132845 -0.3317963 0.4058283 -0.371666 0.3749949
0.37423888 -0.1770513 -0.2657355 -0.3001265

sequential/net/while/gru_cell/strided_slice_4 f4 [20]
00000000: 90b7 233e 54f1 c63e 76fd e63e a1de e63d
00000010: 035b d63c 5348 073f cb3f 1e3d ff33 6d3e
00000020: e42e a7be 7f20 77be 9815 713e 7cc5 8ebe
00000030: 56cc a93e f5ed 8a3e b466 48be 93d3 04be
00000040: 57d7 093e 60de aa3e a4b5 cf3e 6fe4 dabe
0.15987992 0.38855994 0.4511525 0.11272932 0.026166445 0.52844733 0.038635056 0.23164366
-0.32652962 -0.2413349 0.23543394 -0.27885044 0.33163708 0.27134672 -0.19570428 -0.12971334
0.13461052 0.33372784 0.40568268 -0.42752406

sequential/net/while/gru_cell/strided_slice_5 f4 [20]
00000000: eec5 363f 1279 c33c e8d6 043f 46ef 4bbf
00000010: 4b64 803f 3df3 bb3e ad3d 1e3f 41e3 9cbf
00000020: 3cbc 483f 3eba 6e3f 79d3 70bf c647 aebd
00000030: f4a9 9abe 4910 86be 14e1 683f d33f 533e
00000040: 1126 5e3e 235b 8bbf d922 39bf 9caf 5bbf
0.71395767 0.023861442 0.5189042 -0.7966198 1.0030607 0.36709014 0.6181286 -1.2256852
0.7841222 0.93252933 -0.9407268 -0.085097834 -0.3020779 -0.261843 0.9096844 0.20629816
0.21694209 -1.0887188 -0.723188 -0.85814834

sequential/net/while/gru_cell/MatMul_3 f4 [20, 20]
00000000: 3ee1 b53c 2739 133e 4d17 5a3d b4b5 863b
00000010: dc2c d63e c320 843d a130 533d 47ba a8bd
00000020: 2482 8dbc 1b6f 2e3d 0d9e 2c3e c066 083e
00000030: 25e7 fa3d 458d 613c ff2d a0bd 3483 36bd
00000040: 98bb 28be 5e68 433e 5832 b43d 6e6a 233c
00000050: 3107 58be 0576 d53e bb95 103e d65a 3a3d
00000060: 5cf7 febe 5972 09be 390b 0b3e fadd a8be
00000070: bab3 843e 544f 233d 487a 873e 3697 84be
00000080: de55 693c 5ce4 d03d 6833 8bbe 2a18 533e
00000090: 04ba 80bc cf28 aebd eefa 00be d615 fbbe
000000a0: 1e50 91bd 225d 2bbe b764 0c3e 9a51 edbc
000000b0: a848 9f3e 041d 973e 1890 063d 92dc 263d
000000c0: 5fc2 933e 2294 3f3d 5f23 28bd 4882 4d3e
000000d0: e873 a73d 4358 eb3c 98cb dcbb f996 533d
000000e0: 710c 663e fb7b 473c 8da7 abbe 9907 423e
000000f0: e302 863e c0bb 903e 2b0c 973e c49a bb3d
00000100: 2a63 0abf 1fbe f23d 5d17 3f3c a56b 243e
00000110: a4b9 4fbe 316e 6f3e e401 5a3c d241 1d3f
00000120: bde6 2c3e c4b5 c63d c762 273c f7e4 18be
00000130: aeff 3dbd 1178 883d e349 cb3e 5410 293d
00000140: ca2c 8b3e 1522 b33c ac61 d3bd 491d fbbd
00000150: bf9d b43e 4930 60be 01dc 5abe 85a5 083e
00000160: c264 34be db12 b5bd 5c8b 953d fdef 1ebf
00000170: 515d 32bf dd86 303d 8a16 d73d 27a0 aabe
00000180: 9f81 ed3d 0e6c 6bbe 12e7 013e d52f 3d3e
00000190: e546 37bd 5a55 47be 167a 32be 717a ddbc
000001a0: fd66 833e 2f27 dc3e ad25 9ebd 8ddf c8bd
000001b0: 90bf 88bd 0988 a93d d901 f3bb 0929 30bd
000001c0: f582 febd be82 53be 36bc f4bc d69e 2339
000001d0: 219f 9bbc 3938 5bbd 95ce 7abe af44 4bbc
000001e0: 9da6 82be dfb1 04be edd0 ad3e c43e 15be
000001f0: d4a7 e33b b277 e2bd b653 dc3e 9f80 b83d
00000200: 0ea6 373e 5278 feba 546a e0ba 9f0a a9bd
00000210: 2c58 353f cda3 0bbe 63d2 293e 7201 d03d
00000220: 8aa3 83bd 1891 4abd a255 1dbe a418 23be
00000230: 8ed9 0f3f 313e ee3e 88be b7bd 5099 c0be
00000240: 0f73 763d 2782 a6bd cde1 843e 84fd 1d3d
00000250: 4409 e8bd c5b3 4d3d 8869 bcbe b9ae 24be
00000260: 6521 a1be a151 163d 557c e9bd 2c11 063e
00000270: b903 bf3b 76b8 4cbe 651d d3bd 54f0 3b3e
00000280: 5814 953e d00b 27be c854 59be 69b4 9fbe
00000290: 5986 22be ef4c f9bd 3d0a a9be 738c c3bd
000002a0: 13a7 0d3f e19c 963e e0e9 ebbc c7b3 b1be
000002b0: 87cd b3be 4c12 253f 2e8d edbd 2775 393d
000002c0: c0d0 80be cf2c f2bd 1640 efbe ae8c 53bd
000002d0: 0fe0 73be 200c b23d 965e 19be 9584 843e
000002e0: b025 a03e ee2d 0c3e e4b1 173e d36c bdbd
000002f0: 3b0e ac3d 624e 7bbe cb8b 7b3d dfdb 49bd
00000300: 881b 4d3d cb32 503e 6a85 b4bc 87a3 2a3d
00000310: 51cd 963e 0150 fa3d 7ce1 69be 7cbc 04be
00000320: 1055 653e 2549 cbbe 4920 4fbe 64b6 c03d
00000330: dce1 163c 2110 ab3e 3868 e1bd 7773 4cbe
00000340: 46fe 873e 9fd2 d5bc 10d7 113e 6763 51bd
00000350: 8912 19be 881d 793e 1df8 123d d8a4 a23d
00000360: 86e1 113d 8864 3b3d 8e7c 5fbe d34c 483d
00000370: f239 863e 8491 be3b 65dd 20bc a727 eebd
00000380: 23ca 1cbd 6684 a5bd 7303 11be 08dc a93e
00000390: ee96 54be d32b 063e b153 0c3e aaf9 c8bb
000003a0: defd 113f 7c44 81bd 9874 febd 16a0 81be
000003b0: 44e4 f83c 7620 803d b1de bc3d 12e5 893e
000003c0: 65af f03d 8159 dabe c693 ac3e 768e be3d
000003d0: 0168 993e 862f 02bf 2359 89be 6a47 713e
000003e0: 3354 62be 130f 0b3e f2ca 0d3d 99e7 86be
000003f0: 5860 01bf b2fb 203e fff7 843d 73cd 5cbe
0.02220213 0.1437727 0.053244878 0.004111016 0.418311 0.06451561 0.051560048 -0.082386546
-0.01727397 0.042586427 0.16857167 0.13320446 0.122511186 0.013766591 -0.07821273 -0.04455872
-0.16477811 0.19082782 0.08798665 0.009974105 -0.21096493 0.41691604 0.14119618 0.045496784
-0.49798095 -0.13422526 0.135785 -0.32981855 0.2591837 0.039870575 0.2646048 -0.25896615
0.014241664 0.10199806 -0.27187657 0.20614687 -0.0157137 -0.08503877 -0.12595722 -0.49040097
-0.07095359 -0.16734746 0.13710295 -0.028969575 0.3111012 0.29514325 0.032852262 0.040737696
0.2885923 0.04677213 -0.041049358 0.2006923 0.08176404 0.02872861 -0.0067381375 0.05165765
0.22465684 0.012175555 -0.3352627 0.18948211 0.26174077 0.28268242 0.2950147 0.091603786
-0.5405756 0.11852669 0.011663285 0.16056688 -0.2028566 0.23381878 0.013306115 0.6142856
0.16884895 0.09702638 0.010216421 -0.14931093 -0.046386413 0.06663526 0.3970481 0.041275337
0.2718261 0.021866838 -0.10321364 -0.12261445 0.352766 -0.2189342 -0.21372987 0.1334439
-0.17616561 -0.08841487 0.07301971 -0.62084943 -0.6967364 0.043097366 0.10502346 -0.33325312
0.11596989 -0.22990438 0.12685803 0.18475278 -0.044745345 -0.19466153 -0.17429385 -0.027035924
0.2566451 0.42998645 -0.0772203 -0.09808264 -0.06677163 0.082779 -0.0074159917 -0.043007884
-0.12427322 -0.20655343 -0.029874902 0.00015604062 -0.018996777 -0.053520415 -0.24492867 -0.012406512
-0.2551774 -0.12958477 0.3394846 -0.14574724 0.006947497 -0.11057986 0.43032616 0.090089075
0.17934439 -0.001941452 -0.0017121532 -0.08253979 0.70837665 -0.13636704 0.16584162 0.10156526
-0.06427677 -0.04945478 -0.15364698 -0.15927368 0.5619134 0.46531823 -0.08971888 -0.37616968
0.060168322 -0.08130293 0.25953522 0.03857185 -0.11329892 0.05022027 -0.36799264 -0.16082276
-0.3147079 0.03669894 -0.114006676 0.13092488 0.005829301 -0.19992241 -0.10308341 0.18353397
0.29117084 -0.163131 -0.21223748 -0.3119233 -0.15871562 -0.12172877 -0.33015624 -0.09548273
0.5533306 0.29416564 -0.028798044 -0.34707472 -0.35117742 0.64481044 -0.115991935 0.04527774
-0.25159264 -0.11824953 -0.4672858 -0.051647834 -0.2381594 0.08693719 -0.14977488 0.25882402
0.31278753 0.13689396 0.14813954 -0.09249272 0.08401152 -0.2454162 0.061412614 -0.04928195
0.050075084 0.20331876 -0.022036273 0.041659858 0.2945352 0.12222291 -0.22839922 -0.12962526
0.2239573 -0.39704242 -0.2022716 0.09409788 0.0092091225 0.33410743 -0.11006206 -0.19965921
0.26561183 -0.026101409 0.14242196 -0.051120188 -0.14948477 0.24327672 0.03588115 0.07941598
0.035615467 0.04575017 -0.21824858 0.04890139 0.26216084 0.0058156867 -0.00981841 -0.11628657
-0.03827871 -0.080818936 -0.14161472 0.33175683 -0.207607 0.13102655 0.137038 -0.006133278
0.57027996 -0.063118905 -0.12424582 -0.25317448 0.030382283 0.062561914 0.092221625 0.2693258
0.11752204 -0.4264641 0.33706492 0.09304516 0.2996216 -0.50853765 -0.26825818 0.23562399
-0.22102432 0.13579969 0.03461737 -0.2634857 -0.50537634 0.15721014 0.06492614 -0.21562748

sequential/net/while/gru_cell/MatMul_4 f4 [20, 20]
00000000: 9797 5a3c 4a85 9bbe c4d4 65bd 2a44 0e3e
00000010: 97f0 67bb 2823 0f3e 08ad 31be d8a7 b3bd
00000020: 6371 033e 8b4d 2e3e 1949 eebc 34d4 02be
00000030: 5fe9 d5be 5688 2b3d c290 f33b a53f 9bbe
00000040: 8f25 833d fe87 c0be 5d1a 373e ebc2 b33e
00000050: 8faa 5f3e d075 c83e db49 523d 1bd6 b93d
00000060: 0b15 2bbb 7261 cd3d efa9 82bd 5b3c a8bc
00000070: 702e 653d 6eef 873e 8280 bdbc 858d 2fbe
00000080: fc07 13bf 13bf e13e 8ebf 0f3e c35d 243e
00000090: 0d65 e9be 3cfa c53e 4d6e 133e 2ba6 cabe
000000a0: cb3d 9ebe 3003 a63e 8aef 243f 9be3 a83e
000000b0: 8c48 78be dab5 0fbe 7930 b03d 03fa 66be
000000c0: 1a3a fcbd 47ee 1abe 6581 f8bb 8762 313c
000000d0: 9f79 0f3f 921b 0abd 9813 babc 34c2 bd3e
000000e0: f68b 80bd 26a7 703e 3864 fdbc 39b2 ac3e
000000f0: a95f ed3e f9de 233e 8d31 dabd 76d0 8e3e
00000100: 2f58 e53e 71ae 213d 2df7 eabe cc84 1d3e
00000110: c615 b0be c98e 973e 2ed5 9abe dbe1 04be
00000120: 0b6a c6be ce80 113f 8635 053e a5cb b1bd
00000130: 1584 32bd 7be3 f33c db79 70bd ee2e 0cbe
00000140: 826c 4abe fb27 5ebe 1ce2 44ba 3062 5dbe
00000150: 840c 65be 2402 883e b340 04be d908 e83d
00000160: 4528 ecbd 9594 84bd 6bf7 13be b2cc 72be
00000170: d4fa 6fbe 3308 d1be 8f1f 3abe 1203 efbd
00000180: aa43 abbd ce8b f6bd 3fb1 c43e 0416 dbbc
00000190: 5f97 8dbe 8e97 8abd 6373 0cbf f5b9 883e
000001a0: ce57 b2be c2b6 843f 2961 8f3e d6a6 c8bd
000001b0: b112 103e 781c 163e b284 8fbe 8385 5c3e
000001c0: e3ea 98bd dd6c 2e3e 09fa d63d d195 733e
000001d0: eb2e 5fbd fdce 64be 43e1 5d3e 596e 8b3e
000001e0: 3640 31be 13f4 28be f8c5 b23b cd8d a23e
000001f0: 71b6 0c3f 6fcd 6d3d acae 1c3f d6a2 c9bd
00000200: ec82 693e d985 803d 2948 d6be 2be1 95be
00000210: 2646 883d da3c c9be cb70 bbbd 6db8 193d
00000220: da1c bc3e 16d9 d0bd 5b99 f33e c87a 503f
00000230: 0dc2 d3bd e93c c6bd 9aee 6a3e ea40 ebbd
00000240: 1043 20be d628 09be ca23 063e 9c91 3dbe
00000250: 9f24 22be 2110 013f 6455 df3e 09ab b43e
00000260: c8a5 903e a13f 9b3e ae26 d4be 89ba 16be
00000270: 51f4 743e 3cc7 c03d 0cc7 95bd b068 213e
00000280: 5059 a1bb 1d47 80be ee66 f3bc f254 14be
00000290: a81b 0c3f 4bc6 143e a3ca 3bbe bc21 4b3d
000002a0: 2204 f83d c3db 1bbe 1d11 803e 612f 573e
000002b0: 7eda 573d cb71 293e 6895 383e 4d57 8abe
000002c0: 9833 873e 6287 83bb 2a58 853e cb08 b63d
000002d0: 3bae fbbe 0111 aabe 581e 77bd bb21 eb3e
000002e0: ead0 c83c ef78 503e e0c5 2a3e 0cf3 283d
000002f0: 92e8 683d 7163 02bd 59b0 d5bd c5b4 c03e
00000300: f332 0fbe 8c1d 96bc c392 d93c 140c 14be
00000310: 1cd6 d93e b62c c0bd 15b2 acbd f7d8 493e
00000320: 2279 c4be 55d0 79be 50e3 933d c2f5 2b3e
00000330: 7408 323f 2013 80bd 5268 8ebe afa5 903e
00000340: 3ebe 5b3d ee88 3b3e d05f afbe f2d1 6fbd
00000350: 75c4 6e3e f4e7 6b3e 12d0 c4bd 8603 dbba
00000360: a3fd 953d b115 c8be abee be3d ca3d d23e
00000370: bcdb a6bd 2241 8ebe 7914 9c3e f4a4 0cbe
00000380: 96c7 61be 1cc3 76be 0d57 cfbb 3fc9 bc3d
00000390: 2224 6fbd eced 59be d79b 8abe c442 c73d
000003a0: caeb 253e fcbb 6c3e cb72 9d3e 86ec ec3e
000003b0: 8b0b 44be 02cf 06be 37d9 1b3c 68ce 00be
000003c0: f37a cd3e 9ee2 b83e 0fcf 393e 2380 6abe
000003d0: c744 dcbd 1640 6cbe f845 143e 1693 dd3c
000003e0: fd83 e13d 96da 683e 6e49 bebe 52bd 853e
000003f0: 88b9 90bd 7abe fc3e 56c9 d4bd 5bba 6a3e
0.013341806 -0.3037513 -0.056111112 0.1389319 -0.0035391205 0.13978255 -0.17351162 -0.08772248
0.12836222 0.17021768 -0.02908759 -0.12776262 -0.4177961 0.041878067 0.007433028 -0.30321994
0.06403648 -0.37603754 0.1788115 0.35109648 0.21842407 0.39152384 0.051339965 0.090740405
-0.0026105072 0.10028352 -0.063800685 -0.020536592 0.05595249 0.26549858 -0.023132566 -0.17143829
-0.5743406 0.4409109 0.14037916 0.16051392 -0.45584908 0.38667476 0.14397545 -0.395799
-0.3090652 0.32424307 0.6442801 0.3298615 -0.24246424 -0.14034215 0.086029954 -0.2255631
-0.123157695 -0.15129958 -0.0075837844 0.010826713 0.56044954 -0.0337177 -0.022714421 0.37062228
-0.062766954 0.23501262 -0.030931577 0.33729723 0.46362045 0.16003026 -0.10653982 0.27893418
0.4479384 0.039473 -0.45891705 0.15382689 -0.34391612 0.29601124 -0.30240768 -0.12976782
-0.3875278 0.56837165 0.13008699 -0.0868142 -0.043582994 0.029771557 -0.05870996 -0.13689777
-0.19767955 -0.21694939 -0.00075104996 -0.21619487 -0.22368056 0.26564133 -0.12915306 0.113298126
-0.11531118 -0.06473652 -0.14449851 -0.23710898 -0.23435527 -0.40826568 -0.18176101 -0.116705075
-0.08362515 -0.120383844 0.38416478 -0.026743896 -0.2765455 -0.06767188 -0.54863566 0.26704374
-0.34832615 1.0368273 0.28003815 -0.097974464 0.1406963 0.14659297 -0.28030926 0.21535306
-0.07466676 0.17033716 0.10496909 0.23787619 -0.054488104 -0.22344585 0.21667962 0.27232626
-0.17309651 -0.16499357 0.0054557286 0.3174881 0.54965883 0.058057245 0.6120403 -0.098455116
0.22803849 0.062755294 -0.4185193 -0.29273352 0.06654005 -0.3930424 -0.09152373 0.037529398
0.36740762 -0.10197656 0.47577938 0.8143735 -0.103397466 -0.096795864 0.22942582 -0.11486991
-0.15650582 -0.13394484 0.1309959 -0.18512577 -0.15834282 0.50415236 0.43619835 0.3528674
0.2825148 0.30321983 -0.4143576 -0.14719595 0.23921324 0.09413001 -0.07313356 0.15762591
-0.004923977 -0.25054255 -0.029712167 -0.14485529 0.547297 0.14528768 -0.18339019 0.04959272
0.12110163 -0.15220551 0.25013056 0.21014167 0.052698605 0.16547315 0.18025744 -0.2701973
0.2640655 -0.0040139416 0.26043826 0.08888396 -0.49156365 -0.33216098 -0.060331672 0.45924172
0.02451368 0.20358633 0.16677046 0.041247413 0.05686242 -0.031833116 -0.10434026 0.37637916
-0.1398428 -0.018324636 0.02655924 -0.14457732 0.42546165 -0.09383528 -0.08432404 0.19711672
-0.38373667 -0.24395879 0.07221091 0.16792968 0.6954415 -0.06253648 -0.27813965 0.28251407
0.053648226 0.18313953 -0.34252787 -0.05854983 0.2331713 0.23037702 -0.09609999 -0.0016709424
0.07323768 -0.3907905 0.09322866 0.41062766 -0.0814738 -0.27784067 0.3048437 -0.137348
-0.22048792 -0.24097866 -0.006327516 0.09218072 -0.05838407 -0.21282166 -0.2707202 0.097295314
0.16203228 0.23118585 0.30751643 0.46274203 -0.19145028 -0.13164905 0.009512237 -0.12578738
0.40132865 0.36110395 0.18145393 -0.22900443 -0.10755306 -0.23071322 0.14479816 0.027047675
0.11011503 0.22739634 -0.37165397 0.26121002 -0.07066637 0.49364072 -0.10389964 0.22922651

sequential/net/while/gru_cell/MatMul_5 f4 [20, 20]
00000000: e042 f0be 77b5 d4be 8f29 19be 123d b4bc
00000010: 99f1 ce3c b3ed c0bd d015 a5bd a584 7dbd
00000020: 4b23 2abd 672b fcbd b841 88bd 93fd 8b3e
00000030: 659f 06bd d22e 60bc 3174 debe 66b0 cd3e
00000040: fa71 a13e 1f1e 83be 781c 87bc 8324 c93d
00000050: dd60 0a3e 08d0 27bc 283f eabb 5c6b 09bd
00000060: ff20 40bc f34c 2c3e b053 ec3c 5373 e4be
00000070: 28f8 383e 90b4 83bc fa1b abbd e5aa ea3d
00000080: 529a bcbb 86ab 8a3d 3990 863e bb76 15bd
00000090: 0c18 503d b4a7 a73d 2079 163d 3f42 80bd
000000a0: 2439 e83e 88f3 babe 6689 9cbd 3762 043e
000000b0: 315f 45be 0574 f13c 1546 333e 6206 923d
000000c0: 83ce 90bd 4758 333c 2997 c8be 010f 3a3d
000000d0: e08a cebe f588 613e 2d43 5cbd fc1c 223f
000000e0: 4a7a 1d3d 21cd 99be cb6c 2b3e 6b2e 92bc
000000f0: 43da d2be 90fc 243f d6da 553d 5bac d13d
00000100: ba73 4bbd 3686 21be 7d73 26bc 598a 1f3e
00000110: 79bf 553d 3207 b5bc 993f 373d ad77 993d
00000120: fa59 033d cdde 17bc de20 cdbe 96c7 4dbe
00000130: c623 5b3e 2671 76bc ba57 8abd 4484 adbc
00000140: 1500 3b3f c934 c2be f303 a9be 2bce a43d
00000150: 034d e2be d105 1b3e 859e 033d a528 98bd
00000160: 3873 883e ff74 503e 9f24 32be fd8f 793e
00000170: 7e83 adbe 293f 2fbe d4de d1bd 8b20 8c3e
00000180: 6904 fabc c6a3 44be 52c1 623d ef86 a1bd
00000190: 6c54 ee3e f47b 0fbe 7a77 4d3e e241 953b
000001a0: 8c92 7f3d 9201 893e 4f82 c43e aba1 573d
000001b0: cf58 003f 74a4 6b3e 42e9 a63d 3f73 14bf
000001c0: a226 d73e d27c 1ebf 3da5 d93e 1404 3b3e
000001d0: 7c6c 2a3e edc5 cdbd e796 e33d 182d b4be
000001e0: 2dec f03d 4bff 95be 1665 a1bd 8c90 733d
000001f0: 469f 0cbe 0834 b43e 8401 eb3e 2e9b 9ebe
00000200: d2ab d0bc 2a51 3a3d ada4 513e 0345 12bd
00000210: bdcc 70bf de70 52bd c73c 963d 4b10 143f
00000220: 4d41 d03d e913 8ebd 46a2 823c d082 1d3d
00000230: 60a0 3cbf 31e0 1cbe 08c8 ddbe 09b7 a03e
00000240: 34c2 82bf 18f3 00bf 2fba 86be 06bf d23d
00000250: ee14 bbbe f5ed 383b c253 263e 3a6b 8a3e
00000260: 7f84 5bbe a55a 933d 8be1 09be 03ce 92bd
00000270: 3cfe 863e f5a0 8ebe 360c 963b 6779 9b3d
00000280: 8b90 273f 7678 7abe 3e12 8c3e 51d5 173e
00000290: ff48 673e e095 893e d550 573f a726 0a3e
000002a0: 675b 8d3e ccc6 1dbe c745 c8bc d8d7 853e
000002b0: e229 11be aa5a f4be 520a 71be 081e f43a
000002c0: ed38 433f dd43 443e e2ae c23d 980e b1be
000002d0: 205a 0d3f 83b4 7cbe 93bc 053e 1b29 1c3e
000002e0: d167 553e 98ff ce3e a8aa 823e ead5 7e3e
000002f0: d122 fc3e c9f3 ab3e ccc9 4ebe f129 b93e
00000300: e746 f13e ed67 93be 5f4e 1a3f 749d 213f
00000310: 1520 993d 8831 41bd b474 fbba eb19 9cbe
00000320: d55d 3dbe 48d7 013f 9db3 3dbe 039a 883b
00000330: 1604 0cbe 78e9 a9be 51bb 5abe e0df d53e
00000340: 6a68 7c3e da94 283e d83e f1bd c3c8 003f
00000350: 9f51 2f3e 39b7 853e 6e71 ae3e e4c3 9abd
00000360: 105f d3bd 8ed2 063e c8b8 22bd 8f8c d23d
00000370: 97b2 e7bc 60c2 03bf 46ad e03d 32fe c7be
00000380: 2611 a6be df5f 21bc ca97 a23e ee81 013e
00000390: bd96 a93d 2233 bdbe 028a 57be 0663 41be
000003a0: 2c6c 12bf c86f 0ebd 0fa3 2e3e 7633 19bf
000003b0: 92a0 0e3d 2886 053d ab9b 06be 9c04 56be
000003c0: 2438 32bd bd5d cabe 21b8 06bd 8e45 1c3e
000003d0: 4aa2 043f 9786 c23e a1a5 013c 5871 93be
000003e0: 6b4a 41be 1d4f cfbc eab6 d7bd 19e6 a0be
000003f0: 53f2 cf3b 6569 2b3d 9a29 863e c926 733e
-0.46926022 -0.41544697 -0.1495726 -0.022001777 0.025261687 -0.094203375 -0.08060801 -0.061894078
-0.041537564 -0.12312966 -0.0665316 0.273419 -0.032866854 -0.013683038 -0.43448022 0.40173644
0.3153227 -0.25608918 -0.016493067 0.09821417 0.13513513 -0.01024247 -0.007148642 -0.03354965
-0.011726617 0.16826229 0.028848499 -0.44619235 0.18063414 -0.01607731 -0.083549455 0.11458377
-0.005755701 0.06770997 0.26281908 -0.036490183 0.050804183 0.08186284 0.036736608 -0.062626354
0.45356095 -0.36513925 -0.07643394 0.12928091 -0.19274594 0.029474268 0.17507203 0.07130124
-0.07070639 0.01094634 -0.39177826 0.045424465 -0.40340328 0.22024901 -0.053775 0.63325477
0.038446702 -0.30039313 0.1674072 -0.0178444 -0.41182145 0.6444788 0.05221065 0.10237952
-0.049670912 -0.15773854 -0.0101593705 0.15580119 0.052184556 -0.022098158 0.044738386 0.074935295
0.03206823 -0.009269428 -0.40064138 -0.20095667 0.21400365 -0.015041625 -0.06755014 -0.021181233
0.73047 -0.37930897 -0.33010826 0.08047136 -0.4419938 0.15138938 0.032133598 -0.07429627
0.26650405 0.2035713 -0.17396782 0.24371333 -0.33889383 -0.17113937 -0.10247579 0.27368578
-0.030519681 -0.192031 0.055360146 -0.07887065 0.46548784 -0.14012128 0.20065108 0.004554973
0.062395617 0.2675901 0.38380668 0.052644413 0.5013551 0.23011953 0.08149959 -0.5798835
0.42021662 -0.6190921 0.4250888 0.18263274 0.16642946 -0.10047517 0.11112767 -0.35190654
0.11763797 -0.29296336 -0.07880609 0.059464023 -0.13732633 0.35195947 0.45899594 -0.30977768
-0.025472555 0.04548756 0.20472975 -0.035710346 -0.94062406 -0.05137717 0.07335811 0.5783736
0.10168705 -0.06937391 0.015946519 0.03845483 -0.7368221 -0.15319897 -0.43316674 0.31389645
-1.0215516 -0.5037093 -0.26313922 0.10290341 -0.36539406 0.0028218005 0.16242889 0.27034932
-0.21437262 0.071950234 -0.13464944 -0.071682 0.2636584 -0.27857175 0.0045790924 0.07591515
0.6545493 -0.24460015 0.27357668 0.14827468 0.2258644 0.26872158 0.84107715 0.13491307
0.27608797 -0.15407866 -0.024447335 0.26141238 -0.14176133 -0.4772542 -0.23539093 0.0018624673
0.76258737 0.19166513 0.095060125 -0.34581447 0.55215645 -0.24678235 0.13060217 0.15250055
0.20840384 0.40429378 0.25520825 0.24886289 0.49245313 0.3358443 -0.20194167 0.3616481
0.47124407 -0.28790227 0.60275835 0.6313088 0.07476822 -0.047166377 -0.001918456 -0.30488524
-0.18492825 0.5071912 -0.18525548 0.0041687503 -0.13673434 -0.33185935 -0.21360518 0.41772366
0.24649206 0.16463032 -0.117795646 0.5030634 0.1712098 0.2611635 0.34070915 -0.075568944
-0.10320866 0.13166258 -0.039727002 0.10280716 -0.0282834 -0.5146847 0.10970549 -0.39061123
-0.32434958 -0.009849518 0.3175643 0.1264722 0.08280704 -0.36953074 -0.2104874 -0.1888543
-0.5719631 -0.03477457 0.1705439 -0.5984415 0.0348211 0.032598644 -0.1314532 -0.20900196
-0.04351057 -0.39524642 -0.032890443 0.15260908 0.51810133 0.3799331 0.007913024 -0.28797412
-0.18876044 -0.025306279 -0.10532935 -0.3142555 0.006346026 0.04184856 0.26203614 0.23745264

sequential/net/while/gru_cell/MatMul f4 [20, 13]
00000000: fd0d d53e 17da 0fbc a6b9 b0be ef10 b0be
00000010: d6df cfbd e37b b53d 7755 93bc fece 483e
00000020: ac7c bdbe af3c 17be 062d 43be 2349 7cbf
00000030: 4158 78be d31c 88be 7a9b 6fbc a5c5 983d
00000040: 63ad 843e 31bf dcbd 6cff 503e c45f 64be
00000050: 45b4 9fbd 0aa5 43be d1a8 89bd 07a9 d3bc
00000060: d675 893d 4caf bfbe 9684 b4be 65b8 503c
00000070: 16b7 d63d 961f 15bf 366a f03e 1fc6 a63e
00000080: 9930 80be 1869 afbe 2a03 4e3e feb3 cd3d
00000090: 181f babd 882d 1b3e d159 a03e 6eab abbc
000000a0: bcce ba3c 28ae 843b b15b f2be e0dc 3fbe
000000b0: 067d 383d 23e9 98bd 12cf c0be 7853 ee3e
000000c0: a050 653e ff0a 1b3e 5cc9 45bf 4a6c 7a3f
000000d0: 109e 01be 42c7 043b 3a0a c13d 5628 bcbd
000000e0: 8e8f e63d cf95 d63d bd1d 30be 2526 90be
000000f0: fe0b b2bd d4b6 c2bd a255 1c3d 8c2d 62bd
00000100: 97db adbd facd 14bc 31ae 13bd 51a8 473d
00000110: 7f4b dd3c 5774 9abc 8cc2 c03c 4da9 0ebe
00000120: 160b 95be 0203 3dbf dec6 e7bd 37e5 053f
00000130: 9c34 4d3e 423a dbbe bfb3 cf3c 9112 843e
00000140: 59f8 3abb d365 e33e fae2 833e 5548 3ebe
00000150: 172a d43d 5ace 91be efef e23d 18aa d93c
00000160: 17c1 a63e b168 d9bd d7a8 a53e 4892 ce3d
00000170: 9b73 45bc 7ff9 ab3d 5ddd 233d 22c2 013e
00000180: 6c36 cf3d 08c1 383e 0c33 3fbf 9022 b5be
00000190: b056 83be f152 523e 08b7 303e a968 183e
000001a0: f344 003c f3fc 74bd 7dc8 77be f0fd ebbe
000001b0: ff0d d03d 8d4d 013e 5897 bd3e c5d3 ca3e
000001c0: 87c3 17bd 7b14 763c f14c f1bc 7d18 dcbe
000001d0: 1eae e0be 8fd7 523c 1a16 fbbd 6d53 363d
000001e0: 29cd bdbd 95e5 663e fd8f 993e 5159 593b
000001f0: 19be d93d f1e4 dcbd 1dff cabe 4620 85bd
00000200: fa27 243e 7f1f 643c bf17 d1bb 2f61 2dbd
00000210: 4253 8a3e 5fe0 2a3d 6e63 6abd 6231 a8be
00000220: de73 e03d e5c0 0d3d 8134 593c 52a9 bf3e
00000230: 2448 693e 44ab b7be 7deb ae3d 492a cd3e
00000240: 45be 89bc e79e ee3c bcbc cebe 4800 b23e
00000250: 0bc1 8b3e 208c 953e ce09 b23d 96a9 14be
00000260: 42a0 46bc f1d1 bb3e 17e9 8a3f b85d eb3d
00000270: 4e22 93bd 26d6 663d bda6 033e 3529 4dbd
00000280: d325 273e 39d8 d8bd a69a 3fbe 45fd b13d
00000290: ca38 27bd 64ed 703f f376 90be 8e50 cebe
000002a0: a5d4 c0be f380 86bc 49ac 543c 4b8d 3ebe
000002b0: a00a 9d3d bdec c13c f483 0bbe f45f 4b3e
000002c0: b771 4e3e 4794 eb3e db20 8ebd 0984 8bbe
000002d0: 53dd 9cbe 0a53 903b 4a05 1c3e bae4 333c
000002e0: dd12 5abe 56e2 d93e 02f0 223e df03 693e
000002f0: 7bd8 9fbd 9b9f 6ebf ac60 26be b5c4 92be
00000300: 8033 103f c207 243f b0f7 b33e a030 173d
00000310: d32b b6bd e795 4b3e 3849 b9bd efaf d53b
00000320: 5816 c2be aafc c5bd 3286 b53e 5be2 8cbd
00000330: ebaa 31bd 0740 c43d 84da ea3e a87e 14be
00000340: ff86 20be 60d6 00be a30d ae3d ea06 b83c
00000350: 8354 323e 1bae 863d 5409 b33d acba ed3d
00000360: d588 87bc 7496 91be 4939 cb3d f11c e43d
00000370: fcea 3b3e 98bb 23bd d52c 023d c125 8f3e
00000380: 0f4c 623d 5d66 2e3e 813d a2be cabe d93b
00000390: 92e4 143e 7805 f8bd 0e91 993e 276c 39be
000003a0: 708a 18bf 96a4 afbd d9dd 93bd 3a2f 393c
000003b0: 5863 443f 4fc4 983e 06bb 3f3f 6261 0a3f
000003c0: 43aa e3be e952 9fbe b4e4 4cbf 70b8 84bd
000003d0: 11da 503e 069b d23c dd82 2bbf 3be7 953d
000003e0: b418 17bc 182f f6bd f811 88be f327 373e
000003f0: 3b48 b33e 6cae 043e 8010 a7bd 3ca9 d5bc
0.41612235 -0.008780024 -0.3451664 -0.3438792 -0.10150115 0.0886152 -0.017985089 0.19610211
-0.3700918 -0.14769243 -0.19060144 -0.985491 -0.24252416 -0.2658449 -0.014624471 0.07459573
0.25913534 -0.10778654 0.20409936 -0.22302157 -0.077980556 -0.19105926 -0.06721652 -0.025837434
0.067119285 -0.37438428 -0.35257405 0.012739276 0.104841396 -0.5825132 0.46956033 0.3257303
-0.25037077 -0.34259868 0.20118394 0.100440964 -0.09087962 0.15154088 0.31318524 -0.020955767
0.022803657 0.0040490814 -0.4733558 -0.18736601 0.045041107 -0.07466342 -0.37657982 0.46548057
0.22394037 0.15140913 -0.77260375 0.97821486 -0.12657952 0.0020260368 0.09425779 -0.09187381
0.1125785 0.104777925 -0.17198844 -0.28154102 -0.086936936 -0.09507528 0.038167603 -0.055219218
-0.08489149 -0.009082312 -0.036054794 0.048744503 0.027013538 -0.018854303 0.023530267 -0.1393177
-0.2911002 -0.73832715 -0.11317228 0.5230288 0.200396 -0.42817885 0.025354264 0.25795415
-0.0028529374 0.44413623 0.25759107 -0.1858228 0.103595905 -0.28477746 0.1108092 0.026570365
0.3256919 -0.106156714 0.32355377 0.10086495 -0.012051488 0.08397197 0.04000603 0.12671712
0.10117802 0.18042386 -0.74687266 -0.35377932 -0.25652075 0.20539452 0.17257321 0.14883675
0.007828939 -0.059811544 -0.24197574 -0.46092176 0.101589195 0.1262724 0.3702953 0.39614692
-0.037051704 0.015019531 -0.029455634 -0.42987433 -0.4388284 0.012868776 -0.12260075 0.044513155
-0.09267647 0.22548516 0.29992667 0.003316481 0.106319614 -0.107858546 -0.3964776 -0.06500296
0.16030875 0.013923525 -0.0063810046 -0.04232901 0.27016646 0.041717883 -0.05722373 -0.32850176
0.109596 0.034607787 0.013257147 0.3743387 0.22781426 -0.35872853 0.085410096 0.40071324
-0.01681436 0.029128505 -0.40378368 0.3476584 0.27295718 0.2920847 0.08693276 -0.14517817
-0.012123169 0.3668361 1.0852383 0.11492485 -0.071842775 0.05635657 0.12856574 -0.050088126
0.16323023 -0.10588116 -0.18711337 0.086908855 -0.040825643 0.9411223 -0.2821575 -0.40295833
-0.37662235 -0.01641891 0.012980529 -0.18608586 0.07668042 0.023672456 -0.13624555 0.19860822
0.20160566 0.46011564 -0.069398604 -0.27249172 -0.30637607 0.0044044303 0.15236393 0.010979826
-0.21296258 0.42555493 0.15911868 0.22755383 -0.07804962 -0.9321229 -0.16247815 -0.286657
0.5632858 0.6407434 0.35149908 0.036911607 -0.088950776 0.19881402 -0.090471685 0.006521217
-0.37907672 -0.096673325 0.35453945 -0.068791114 -0.04337589 0.09582525 0.4586984 -0.1450144
-0.15676497 -0.12581778 0.08498695 0.022464234 0.17415051 0.06576177 0.087420136 0.116078705
-0.016544739 -0.284351 0.09923036 0.11138333 0.18351358 -0.039973825 0.031781036 0.2795849
0.055248316 0.17031236 -0.3168755 0.0066450583 0.14540318 -0.12110418 0.2999348 -0.18107663
-0.5958624 -0.08576314 -0.072200485 0.011302764 0.76714087 0.29837272 0.7489475 0.54054844
-0.44465837 -0.31117943 -0.80036473 -0.06480491 0.20395686 0.025708687 -0.66996557 0.07319494
-0.009222198 -0.12020701 -0.2657621 0.17886333 0.35016045 0.12957162 -0.08157444 -0.026081674

sequential/net/while/gru_cell/MatMul_1 f4 [20, 13]
00000000: 991e dcbd 5dfd 003e 7d0a edbc d122 a03e
00000010: e5f2 373f 9718 d2be 90ce b63c 3e47 9e3f
00000020: 3841 ac3e 6220 65be 77f1 40bf 7a59 87be
00000030: ad37 95be eedf 88be 17b7 35be bee1 913e
00000040: fe92 c53e 246a 11be 770b 97bb 0947 423f
00000050: 6a73 aa3e 1ee0 59bc ee8a 3e3f 128c 893e
00000060: 4a4e 0ebf 0f90 39bd 894e bbbd 9092 213e
00000070: c205 8bbe 3413 57bd 00d5 4c3c 18be ee3e
00000080: 066c 273e 57e8 d2be 308e 14bf 60de 17bf
00000090: e315 dd3d 629b e9bd 1ea2 cf3d cda8 07bf
000000a0: 2e75 813c ac82 443d 3d16 84bd d5b2 60be
000000b0: 9cb0 f93d 6229 e33e 2a27 fe3c e1a3 663e
000000c0: e78d 2b3e 0445 6b3f 1a80 3abf 3c40 12bf
000000d0: fd95 c23b 5e8c 563d c252 08be f558 183e
000000e0: aa5c ce3d aad3 343e 7670 83ba c7a8 cfbc
000000f0: 1bee 4abe 7766 50bf fbe4 473f d0ff bf3e
00000100: 8d67 cbbe 5e15 0bbf 9cde b83e 4821 7cbb
00000110: 288a 693e a6f9 74bb affa 6b3f 1f47 9fbd
00000120: 61f8 2fbf d535 05bf cc53 07be a212 9dbd
00000130: 6d27 983e 7d5a 4ebd ff7e 92bd 7311 823d
00000140: 20f4 f53d a769 31bb 9ddc 79be 2c9a 89bd
00000150: 9d28 ddbe 7877 103f 328e 093f b01f 1b3d
00000160: 06eb 04bf 4d3f 953e dfc0 f03e 4393 33bd
00000170: c300 08bd 7481 11bf d508 0d3e 59ff 60be
00000180: 28c8 28bf 7e17 3dbf 3e35 1b3e 73b6 1cbf
00000190: ae88 7abf b611 c1be 4708 d93e c577 0fbf
000001a0: 54a1 89be fe26 8fbd ae00 413f 90af ae3c
000001b0: 3550 273e 8d6a 07bd bbf8 74be 3707 5fbe
000001c0: 9e65 8fbe 3ef1 1f3f 2001 3c3f 9f43 c83d
000001d0: 688e 24be d953 e4be 5e60 16be 5a55 d2be
000001e0: 9e11 0c3f a39e 3137 7896 b33e b2fd ca3d
000001f0: ca49 ea3c 211f 12be 92fd 7b3e a5da d33e
00000200: ef68 073f 24b6 45bf dbc9 c93d d7e4 803e
00000210: f69b 1fbf 5ddc 463f 46be a7bd c23a 39bc
00000220: f557 e03d 3c40 9cbd 5b16 1c3f 1aad 223f
00000230: 86a5 99bd 9774 a63d acdb aebd 87a6 533c
00000240: 69d3 92bc 9ee0 c2be f909 b1be b23f 64bd
00000250: 3166 8f3e e998 743e 4a75 ff3d c08a ffbe
00000260: 55e2 18bf 6f2c 00bf ef5b d0be 3877 31bf
00000270: 4e00 163e 0de2 d4bd 143a 713e 1979 003f
00000280: 527a 0f3f aca0 2c3d 9237 d43d 5ca4 14bf
00000290: 153e c53e 1169 963e 96ba c0be 4bae 79bf
000002a0: f329 06be 5137 55bc df91 a93d 8c46 66bf
000002b0: e06d afbc 31ef 94be cc09 333e ada2 1e3f
000002c0: f377 033f 44a2 a03e eab8 a23e 5802 703d
000002d0: ce5c 59bf 9116 d0bd 5ec8 9e3c 4ed7 833d
000002e0: 64eb c5bd e30c 56bf 2876 483e ffbb 903e
000002f0: 1397 25be ca8e 03bf f2ad 1e3f 1941 f93a
00000300: 9f2d cbbe bda9 81be 6374 97be e771 5b3d
00000310: 2f65 62be cf82 bfbe 0d9a 8a3e 0958 ec3d
00000320: ca59 ea3d dae2 963e 2655 153e dfc4 38be
00000330: bada 84be ffe0 2a3e 8847 323d b3b2 cabd
00000340: a642 153e 982c c4be 31d5 a5be 542a 58be
00000350: 6295 553e faa5 f5bb fda7 f1be 0ac6 0fbf
00000360: 4614 323e 2088 34bd eba2 f93e 2bf1 8e3e
00000370: d3ce 88bd 6c19 ae3d 93ba 3f3e 7fce e03d
00000380: d501 843f f588 283e 657b 6d3e 32f3 92be
00000390: b0c8 8c3e 0fdf 5d3e 164b 8c3d 8251 1a3f
000003a0: d367 1cbf 96e0 7fbf ac91 90bb d38e b23d
000003b0: abf7 cfbe 5c58 34bf e8b5 453f 7aab 01bf
000003c0: a16c 12be d23e 0cbf 1858 69bf a520 ffbe
000003d0: e720 80be 44b9 58bf 2301 b8be b2b5 2d3e
000003e0: f544 8e3e af61 42bc 5146 10bf 797b f0bd
000003f0: 73c3 453e 2172 b0be b74c a1bf 3171 c5be
-0.107480235 0.1259665 -0.028935665 0.31276563 0.71855 -0.41034386 0.022315294 1.2365491
0.33643508 -0.22375634 -0.75368446 -0.26435453 -0.2914404 -0.26733345 -0.17745624 0.2849254
0.3858871 -0.14200646 -0.004609521 0.7588964 0.3329118 -0.013298063 0.7443074 0.26864678
-0.5558821 -0.0453034 -0.09145839 0.15778565 -0.2715283 -0.052508548 0.012501955 0.46629405
0.16349801 -0.41192886 -0.5802946 -0.5932369 0.1079519 -0.1140659 0.10138343 -0.52991945
0.015802946 0.04797618 -0.06449554 -0.21943219 0.12191889 0.4436751 0.031024534 0.22523452
0.1675335 0.91902184 -0.7285172 -0.57129264 0.00593829 0.05237996 -0.1331282 0.14877684
0.10076268 0.17658868 -0.0010028023 -0.025349034 -0.19817393 -0.8140635 0.7808377 0.37499857
-0.3972744 -0.5432948 0.36107337 -0.0038471986 0.22806609 -0.0037380247 0.9217939 -0.07777237
-0.6873837 -0.52035266 -0.1321556 -0.076695696 0.2971758 -0.050379265 -0.07153129 0.063509844
0.12009454 -0.002707103 -0.24400564 -0.06718859 -0.43195048 0.56432295 0.537326 0.037872016
-0.5192112 0.29149857 0.4702215 -0.04384161 -0.03320385 -0.56838155 0.137729 -0.21972407
-0.65930414 -0.7386397 0.15157029 -0.61215895 -0.97864807 -0.37708825 0.42389128 -0.5604213
-0.26880896 -0.06989859 0.7539166 0.02132395 0.1633919 -0.0330606 -0.23923008 -0.21780096
-0.28007215 0.6247748 0.73439217 0.09778523 -0.16069949 -0.4459522 -0.14685199 -0.41080743
0.5471438 1.0586958e-05 0.35075736 0.0991167 0.028599638 -0.14269687 0.24608448 0.4137775
0.5289449 -0.7723105 0.09852954 0.2517459 -0.6234735 0.7768 -0.08190589 -0.011305513
0.109542765 -0.07629439 0.6097161 0.6354538 -0.07502274 0.081277065 -0.08537993 0.012918121
-0.017923074 -0.38061994 -0.3457792 -0.055724807 0.28007653 0.23886456 0.12473543 -0.49910545
-0.59720355 -0.500678 -0.4069514 -0.6932254 0.14648554 -0.10394678 0.23557311 0.5018478
0.5604602 0.042145416 0.10362162 -0.5806329 0.38523927 0.29377034 -0.37642354 -0.97531575
-0.1310194 -0.013013677 0.08279776 -0.89951396 -0.021414697 -0.2908874 0.17484206 0.61966974
0.51354903 0.313738 0.31781703 0.058595985 -0.84907234 -0.10160554 0.019382652 0.064375505
-0.09664038 -0.83613414 0.19576323 0.2826843 -0.16170911 -0.51389754 0.6198417 0.0019016593
-0.39683244 -0.25324813 -0.29580984 0.053575423 -0.22108911 -0.37404487 0.27070656 0.11540229
0.11442907 0.2946995 0.14583263 -0.1804385 -0.25948125 0.16687392 0.04352525 -0.098973654
0.14576206 -0.38315272 -0.32389215 -0.21109897 0.20857766 -0.0074965926 -0.47198477 -0.5616156
0.17390546 -0.04407513 0.4875711 0.27918372 -0.066800736 0.085009426 0.18723516 0.10976886
1.0313059 0.16458495 0.23191603 -0.28701168 0.27496862 0.21667121 0.06850259 0.6028062
-0.61095923 -0.99952066 -0.0044118967 0.08718648 -0.40618643 -0.70447326 0.7723069 -0.5065228
-0.14299251 -0.54783356 -0.91150045 -0.49829593 -0.25025102 -0.8465769 -0.35938367 0.16963843
0.27786985 -0.01186411 -0.56357294 -0.117423005 0.19312839 -0.34462073 -1.2601537 -0.3856292

sequential/net/while/gru_cell/MatMul_2 f4 [20, 13]
00000000: cd5c 473b b5f7 03bd dcaf ebbd 6440 3ebe
00000010: 7a02 ecbb 0cdb 81bc c3cd 813e e86a cb3e
00000020: e2ff 07bf f3fb 21be 30c5 a5be a401 cf3e
00000030: c120 c93e f2b9 0a3d a561 d93d 3f56 42be
00000040: 24c8 77be 7942 ee3d e845 3b3e 6299 6cbd
00000050: face b8be 960c dabb 77d0 87be 4519 203e
00000060: a93c d1bd 50ad 3ebd b003 873e f01a 1dbe
00000070: aa75 87be 4637 553e d5a2 d53d 7c40 25bd
00000080: f771 3a3e eb8e 863e ed1d b4bc 0c1b c0be
00000090: 3254 9f3e ce25 af3e 2dde ddbe 91de 36bd
000000a0: 1f37 4abd 5457 4d3d 26a2 af3d e2bc 79be
000000b0: b666 84bd b28f 063f cc36 ffbd dc2b 72be
000000c0: 8157 ac3d 3b40 e23e a4f2 9a3c 940f 043f
000000d0: ad47 1bbd f2fa 9fbd f037 ccbd 321f ec3e
000000e0: 18c5 ca3d ba4e b0bd bda6 f4bd f633 46be
000000f0: e48b e2bd 8456 723e 3595 cabd 451b 0bbe
00000100: 6a3f 0ebe adb3 22bd 5b29 633e 4151 c43d
00000110: 005b 88be 2287 323e 2a2d 1d3e 4d3b 03bf
00000120: 00fd a8bd bf14 763f d79e 0f3e 4aee 92be
00000130: cb25 4d3e 67ef b3be 4f56 1e3d deb0 a9be
00000140: 27e3 183e 9938 9abe 7af8 bbbe 385c f03d
00000150: 1a21 c2be 63f4 c43d 3f59 c5be e36b 6fbd
00000160: 0d6f 92bc 40e0 5f3d f126 62be 0d21 603d
00000170: e712 a7bd 9c2f 37be 52bf 8abd 0d2e efbd
00000180: de8b 88be d3db 9d3d 2c3c 373d 5c93 8dbe
00000190: 86ca a13d 5449 3cbe bcf8 b9bc 2b5d d43c
000001a0: 2da8 693d 2c7a 433e 43fb 8b3e b8ed eb3e
000001b0: 8061 adbd 56e7 8ebe c304 1fbf f02c f2bd
000001c0: ffe7 9b3d 779b 96bd bd3e 6c3e 8866 083f
000001d0: ef19 d73e d204 05be d61c 123c 4598 20be
000001e0: 4b42 97be 7af3 543e 483f e83e 2aa3 463e
000001f0: d0c6 0ebd 0228 15bc 8653 30be 5f42 a2be
00000200: 8a06 da3d 2d02 943e 6b3a d03c a303 f0bc
00000210: b627 97bd c2fd f1bc 9715 7a3e 5eec 7e3e
00000220: eb9d 683e 5166 293e 9e74 113d 7072 7a3e
00000230: 68a0 123d 1f00 34be 3434 1d3f 83f6 2fbd
00000240: 631f 843e e467 ab3e bcfc 7cbe f1ed bfbd
00000250: ac0c d3be 0772 b3be c52d 2b3d cbf9 133f
00000260: 362c 253e f2bb e7be 0bbf 3fbe c4a0 033e
00000270: abfc 9b3b 7954 343e 8438 a0be 6150 1ebe
00000280: 809e dfbd 59e5 b3bc a326 ddbe e178 d7be
00000290: 3506 afbe 5e5f 9bbe 5c2d 4dbe c99f e43e
000002a0: f332 8d3e 8884 a53d 63f4 e63d 7557 ee3d
000002b0: 6707 203e 634c 70be 07c2 27be 6726 84be
000002c0: 0964 9dbd e1e1 843e f2d1 223e f017 cabe
000002d0: cd10 debd d72c bf3d 1ea5 bb3c 54da 213e
000002e0: e2a1 053d 7d94 c93d d8c8 03bd a8f5 a7be
000002f0: 0e80 0abe e3cd a8ba f0e5 cfbb f59c 5f3e
00000300: fc82 08bf 897b 87be 47e2 51bd a2cb 05bd
00000310: 5924 7dbc e38e 73be 5e98 1c3e f831 393d
00000320: 7fbc 043e e9f2 9e3e 5216 20bf 0217 15be
00000330: 95e9 603e 9071 82be 00b3 acbe fd88 3fbe
00000340: 29a3 613e 67a3 fc3c 4c68 89be f4bd 8dbe
00000350: 9b34 733c 9951 bc3e 11ec 09bd ed34 eabe
00000360: 7248 83bd 4873 423e b689 0dbf 694e a6be
00000370: efaf eebe 62f8 8dbd c780 51be 4bb0 a4bd
00000380: f51e 7fbe b149 ab3d dc70 4e3e be8a 2f3e
00000390: fab9 933e 96d0 233e 3610 983e 3af8 31be
000003a0: e398 d1be 8646 5b3c 8bca da3d 5934 643d
000003b0: 4a0b 4e3d 37af 553e ef46 3cbe 1275 573a
000003c0: fb9c 893d 3115 123e 04dc 2f3e e439 59bc
000003d0: 2204 12bf 7a91 dabe 6bf8 bb3e 892e 733d
000003e0: 8cb3 cdbd 8ff0 653d d781 b8bb c3de b33e
000003f0: 8191 6cbd 061f fbbd fce9 853d a14a 1b3f
0.0030420304 -0.032218654 -0.11508152 -0.1857925 -0.0072024437 -0.01585152 0.25352296 0.3973
-0.5312482 -0.15818767 -0.32377005 0.4043094 0.39282802 0.033868738 0.10614327 -0.18978213
-0.24197441 0.116337724 0.18288386 -0.057763465 -0.3609541 -0.0066543324 -0.26526234 0.1563464
-0.10216648 -0.046552002 0.2637 -0.15342307 -0.26456958 0.20821866 0.10431448 -0.0403447
0.18207537 0.26280913 -0.021986926 -0.37520635 0.31118923 0.3420853 -0.4333357 -0.04464585
-0.049368974 0.05013211 0.08575849 -0.2438846 -0.06464903 0.5256301 -0.124616235 -0.23649544
0.084151275 0.4418963 0.018914528 0.5158627 -0.037910152 -0.07811536 -0.09971607 0.4611755
0.09900874 -0.08608766 -0.11945865 -0.19355759 -0.11061838 0.23665816 -0.0989174 -0.13584621
-0.13891378 -0.039722133 0.22183745 0.095858105 -0.26631927 0.17434362 0.1534926 -0.5126236
-0.08251381 0.96125406 0.14025436 -0.28697425 0.20033948 -0.35143587 0.03865653 -0.3314275
0.14930402 -0.30121306 -0.3671301 0.11736339 -0.3791588 0.096169256 -0.38544652 -0.0584525
-0.017875219 0.05465722 -0.22085167 0.05471902 -0.08157902 -0.17889255 -0.06774773 -0.11678705
-0.2666921 0.07707944 0.04473512 -0.2765149 0.078999564 -0.18387347 -0.022701614 0.025923332
0.05704515 0.19089574 0.27340135 0.46079803 -0.08465862 -0.2791087 -0.6211664 -0.118249774
0.07612609 -0.07353871 0.23070808 0.5328145 0.42011973 -0.1299012 0.008918008 -0.15683086
-0.29542765 0.20796004 0.4536078 0.1939818 -0.03485757 -0.009103777 -0.17219362 -0.31691262
0.106457785 0.2890791 0.02541848 -0.02929861 -0.07380621 -0.029539946 0.24422298 0.24894854
0.22716491 0.16542937 0.035511605 0.24457717 0.035797507 -0.17578171 0.6140778 -0.0429597
0.25805196 0.334777 -0.24705786 -0.093715556 -0.41220605 -0.35047933 0.041791696 0.5780303
0.16130146 -0.45260578 -0.18725221 0.12854296 0.004760345 0.17610349 -0.31293118 -0.1546035
-0.10918903 -0.021959947 -0.4319354 -0.4208441 -0.34184423 -0.30346197 -0.20036834 0.44653156
0.27577934 0.08081919 0.11277082 0.11637775 0.15627824 -0.23466639 -0.1638261 -0.2581055
-0.07685096 0.25953582 0.159004 -0.39471388 -0.10843048 0.093347244 0.022905882 0.15805942
0.032625087 0.09842775 -0.03217396 -0.32804608 -0.13525411 -0.0012878742 -0.0063445494 0.21837218
-0.53324866 -0.26461437 -0.051241186 -0.032664903 -0.0154505605 -0.23784976 0.15292498 0.04521367
0.1296253 0.310447 -0.6253406 -0.14559558 0.21964104 -0.25477266 -0.33730316 -0.187046
0.22034897 0.030839635 -0.26837385 -0.27683985 0.014844085 0.36781004 -0.033672396 -0.45743504
-0.06410302 0.18989289 -0.55288255 -0.32481697 -0.46618602 -0.06932141 -0.20459281 -0.08041438
-0.24914153 0.08363665 0.2016024 0.1714277 0.28852826 0.15997538 0.29699868 -0.17379847
-0.40936956 0.013383513 0.10683163 0.055713985 0.050303735 0.2086762 -0.18386434 0.0008219044
0.06719395 0.14265896 0.17173773 -0.013258431 -0.57037556 -0.42689115 0.36712965 0.05937055
-0.100440115 0.056137618 -0.0056307125 0.3513089 -0.05775595 -0.122617766 0.065387696 0.6066075
