buildroot-external/rootfs-overlay/home/mycroft/.local/share/precise-lite/wakewords/en/marvin.tflite (tflite, 21888 bytes, 10 tensors)

sequential/dense_1/MatMul f4 [1, 20]
-0.039985083 -0.35744965 0.029329084 0.42387298 0.3956253 -0.20190802 -0.54212767 0.496687
-0.31405815 -0.10240637 -0.14840432 0.12832217 -0.18824378 -0.3573114 0.47416154 0.27003375
0.04847704 -0.204525 -0.34884024 -0.5425808
00000000: 66c7 23bd a403 b7be 8c43 f03c e105 d93e
00000010: 668f ca3e fac0 4ebe e1c8 0abf c24d fe3e
00000020: 3bcc a0be 6eba d1bd 4df7 17be e366 033e
00000030: fac2 40be 85f1 b6be 4dc5 f23e dd41 8a3e
00000040: dc8f 463d 006f 51be 309b b2be 93e6 0abf

sequential/net/while/gru_cell/strided_slice_3 f4 [20]
-0.21353178 -0.23200934 0.232923 -0.14095016 0.10470293 0.029707802 -0.03349654 0.05163149
0.2221596 -0.18415633 -0.051152177 -0.22175403 0.10186936 -0.15956321 0.025220847 0.057123203
-0.019599853 -0.050681755 0.03749763 -0.16968095
00000000: 13a8 5abe db93 6dbe 5e83 6e3e 3d55 10be
00000010: 7d6e d63d c75d f33c ab33 09bd 8b7b 533d
00000020: ce7d 633e 7a93 3cbe f284 51bd 7d13 63be
00000030: e2a0 d03d 8a64 23be f39b ce3c 05fa 693d
00000040: df8f a0bc ac97 4fbd 1d97 193d d8c0 2dbe

sequential/net/while/gru_cell/strided_slice_4 f4 [20]
0.05101153 0.08099245 0.24199551 0.12921754 0.2482845 -0.16595371 0.19009353 0.106356494
-0.06734523 0.22497968 0.21210665 0.1349122 0.23527429 0.1026454 0.19216853 -0.05798612
0.09407142 0.0057001705 0.16786684 0.22426224
00000000: 77f1 503d 5fdf a53d accd 773e 9a51 043e
00000010: 4b3e 7e3e c5ef 29be e1a7 423e 6fd1 d93d
00000020: 4cec 89bd 1361 663e 7c32 593e 6c26 0a3e
00000030: beeb 703e c037 d23d d4c7 443e db82 6dbd
00000040: 84a8 c03d 7fc8 ba3b 49e5 2b3e 00a5 653e

sequential/net/while/gru_cell/strided_slice_5 f4 [20]
0.2656509 0.47345814 -0.33432093 -0.52237606 -0.46169475 0.6176501 0.33152565 -0.23540609
-0.17983548 0.2785155 0.2920881 -0.23392281 0.22707468 -0.39410508 -0.47892708 -0.21723734
-0.057479683 0.30536336 0.17630279 0.4705422
00000000: 6503 883e 1b69 f23e 1d2c abbe 70ba 05bf
00000010: 4163 ecbe 511e 1e3f bbbd a93e 4b0e 71be
00000020: cb26 38be 9599 8e3e 928c 953e 7689 6fbe
00000030: 4486 683e 24c8 c9be ee35 f5be 7773 5ebe
00000040: d16f 6bbd 9658 9c3e b888 343e e8ea f03e

sequential/net/while/gru_cell/MatMul_3 f4 [20, 20]
0.12445242 0.1690695 -0.17927936 0.06034702 0.16931386 -0.108603224 -0.23691607 -0.20411737
-0.12398832 0.0780179 0.036341637 0.18374094 -0.004255986 0.05883174 0.21307887 -0.1620046
0.011776407 -0.14650555 0.036476623 0.07290843 0.1934124 0.31247956 0.281855 -0.20952654
0.147724 0.222885 -0.11355128 0.027301831 0.15835589 -0.26075327 0.09898031 -0.13627069
0.110291526 0.04126692 -0.05266568 0.18040167 0.04088125 0.12322306 -0.016489163 -0.22809245
0.00020143489 -0.30973202 0.3032396 -0.3368477 0.12283033 -0.23107547 0.18997873 0.3549866
-0.3584064 0.020991994 0.1912974 -0.24741639 -0.12150241 -0.070567004 -0.07599105 0.054523334
0.018496951 0.12628843 -0.15863875 0.006716317 -0.11807093 -0.04119772 0.26656082 -0.20113641
-0.019918192 -0.06068239 0.030271735 0.016560497 0.07342124 0.25040027 -0.12753111 -0.17416435
-0.3574075 0.12737067 0.20701449 -0.11465659 0.020835109 0.01322476 0.16005658 -0.117794245
0.021449247 -0.27652138 0.17264737 -0.21698937 0.00711351 -0.11895074 0.36769035 -0.043574207
-0.27815256 0.14297569 -0.31210312 -0.3367207 -0.2294704 0.14593251 0.22008981 -0.062345862
-0.050927017 0.052279606 -0.20985307 -0.3756521 0.05194538 0.09180236 -0.014747695 -0.04232142
0.0045337887 -0.34797305 -0.2185159 -0.031842798 -0.011560488 0.26621836 -0.03928666 0.22682853
-0.033166908 -0.03782912 -0.21782717 0.15698868 0.2519536 -0.1634884 -0.051340524 0.09068338
0.27083835 -0.01646275 0.045028877 0.13752465 -0.1649891 0.11741592 0.007943478 0.017480666
-0.16152525 -0.019310711 0.08748851 -0.1198507 -0.33880574 0.0060381833 0.17803007 -0.06432579
0.153724 0.25839445 -0.036428522 0.13220553 0.089164525 0.06959999 -0.07310088 -0.040696807
0.18674915 -0.058379345 -0.044641 -0.100093305 -0.011668865 -0.06041921 0.07572567 -0.10804822
-0.09579427 0.03459264 -0.2573859 0.1502148 -0.14705099 -0.05925051 0.22599117 0.2709255
0.04977993 0.26117235 -0.012388611 -0.36313826 0.14160001 -0.1034543 -0.15897483 -0.10786739
-0.34664586 0.318389 0.04905859 -0.0070055975 0.05517244 -0.06551617 -0.1466679 0.13219258
-0.06352906 0.12662597 -0.003901064 0.0643438 -0.28227422 -0.0890429 0.21071884 0.36082253
-0.086365886 0.20291784 0.061184086 -0.03353793 -0.15617219 -0.15194516 0.040779978 -0.1002469
0.09952579 -0.021360356 0.13436562 -0.11041167 -0.19114438 -0.16487797 0.34157172 -0.045603685
-0.13114846 0.009343175 -0.115073554 -0.040298082 0.18764555 0.035783567 0.07474121 -0.17467633
-0.059570435 -0.041216217 0.047834318 0.037246957 0.12401096 -0.035515144 0.033742305 -0.23413831
-0.32558528 0.1391944 -0.07141886 -0.042827565 -0.18482909 -0.112784564 -0.08138774 0.1268027
0.22023158 0.075417876 0.017492022 0.10280904 0.15543362 0.2704668 0.0032444976 -0.070823275
-0.13475606 0.11048151 -0.06745808 -0.20489778 -0.2134023 -0.24357979 0.0417592 -0.35300052
-0.3383572 -0.0765775 0.30179363 -0.33654523 0.19858809 0.06797191 0.12120365 0.08371341
-0.027555324 -0.06821735 -0.10340364 0.058264952 -0.25665617 -0.18845145 0.1471919 -0.01819561
00000000: e9e0 fe3d 8e20 2d3e 0295 37be 702e 773d
00000010: 9d60 2d3e 5e6b debd 209a 72be 2504 51be
00000020: 97ed fdbd d9c7 9f3d f8da 143d 9626 3c3e
00000030: cc75 8bbb 8df9 703d 5931 5a3e 89e4 25be
00000040: d5f1 403c 8d05 16be 8368 153d 0451 953d
00000050: e60d 463e 52fd 9f3e 4c4f 903e 208e 56be
00000060: f644 173e f73b 643e 938d e8bd 17a8 df3c
00000070: 0c28 223e 7481 85be 30b6 ca3d 8b8a 0bbe
00000080: 86e0 e13d 8007 293d f8b7 57bd 37bb 383e
00000090: 1973 273d 5f5c fc3d 4814 87bc 1191 69be
000000a0: 4438 5339 3295 9ebe 3942 9b3e 4d77 acbe
000000b0: 788e fb3d 0c9f 6cbe c989 423e cec0 b53e
000000c0: 0b81 b7be 67f7 ab3c 77e3 433e b95a 7dbe
000000d0: 41d6 f8bd 6f85 90bd 32a1 9bbd dc53 5f3d
000000e0: eb86 973c c151 013e 3272 22be 8d14 dc3b
000000f0: 2ccf f1bd f1be 28bd a97a 883e b4f6 4dbe
00000100: 7a2b a3bc 198e 78bd 6efc f73c e1a9 873c
00000110: e05d 963d 7734 803e 8497 02be 2458 32be
00000120: 1efe b6be 756d 023e 9bfb 533e 13d1 eabd
00000130: 64ae aa3c aaac 583c dfe5 233e 1c3e f1bd
00000140: 55b6 af3c 3694 8dbe 79ca 303e 7632 5ebe
00000150: 7218 e93b 729c f3bd e941 bc3e de7a 32bd
00000160: 036a 8ebe 3868 123e fbcb 9fbe a866 acbe
00000170: 4afa 6abe 556f 153e 395f 613e 605e 7fbd
00000180: d998 50bd 2423 563d b9e3 56be 7955 c0be
00000190: aec4 543d e002 bc3d 51a0 71bc 3a59 2dbd
000001a0: 2d90 943b 8629 b2be a2c2 5fbe 986d 02bd
000001b0: 3368 3dbc c64d 883e 0ceb 20bd bd45 683e
000001c0: 06da 07bd b5f2 1abd 160e 5fbe a4c1 203e
000001d0: 1000 813e 8169 27be 714a 52bd 35b8 b93d
000001e0: 53ab 8a3e e4dc 86bc 3370 383d 43d3 0c3e
000001f0: e7f2 28be c277 f03d 5d25 023c 9d33 8f3c
00000200: e066 25be 7f31 9ebc 2d2d b33d 4974 f5bd
00000210: f277 adbe f4db c53b 844d 363e 3dbd 83bd
00000220: d369 1d3e 474c 843e 1336 15bd e360 073e
00000230: e49b b63d 718a 8e3d eab5 95bd b2b1 26bd
00000240: 2b3b 3f3e 2e1f 6fbd 7bd9 36bd b8fd ccbd
00000250: c42e 3fbc 227a 77bd 0f16 9b3d 6348 ddbd
00000260: c92f c4bd 03b1 0d3d 16c8 83be e9d1 193e
00000270: 8994 16be aab0 72bd 3b6a 673e bfb6 8a3e
00000280: 0ae6 4b3d 62b8 853e 9af9 4abc 42ed b9be
00000290: 98ff 103e d9df d3bd 4cca 22be 94e9 dcbd
000002a0: 917b b1be e203 a33e a9f1 483d 368f e5bb
000002b0: 7ffc 613d 572d 86bd 1c30 16be 7e5d 073e
000002c0: 861b 82bd 3daa 013e fea8 7fbb afc6 833d
000002d0: 3f86 90be 205c b6bd aec6 573e bbbd b83e
000002e0: 99e0 b0bd b2c9 4f3e 2a9c 7a3d 125f 09bd
000002f0: 9aeb 1fbe 8397 1bbe e808 273d 3f4e cdbd
00000300: 2dd4 cb3d eafb aebc 2497 093e 831f e2bd
00000310: 5abb 43be c5d5 28be 7de2 ae3e eeca 3abd
00000320: c84b 06be 1e14 193c afab ebbd 9a0f 25bd
00000330: 2826 403e ca91 123d eb11 993d 5ade 32be
00000340: 2100 74bd 56d2 28bd ebed 433d 4490 183d
00000350: 75f9 fd3d 5478 11bd 5f35 0a3d f4c1 6fbe
00000360: 1db3 a6be fa88 0e3e 0d44 92bd f56b 2fbd
00000370: d643 3dbe 98fb e6bd 9eae a6bd 91d8 013e
00000380: 6384 613e b074 9a3d 6e4b 8f3c 8c8d d23d
00000390: fe29 1f3e a07a 8a3e a3a1 543b cb0b 91bd
000003a0: 7efd 09be 2144 e23d 7627 8abd b9d0 51be
000003b0: 2286 5abe fb6c 79be b20b 2b3d 7cbc b4be
000003c0: 283d adbe aad4 9cbd b284 9a3e a84f acbe
000003d0: ad5a 4b3e db34 8b3d 9f39 f83d f071 ab3d
000003e0: b4bb e1bc 8ab5 8bbd 4ac5 d3bd 3ba7 6e3d
000003f0: 7068 83be 6bf9 40be 79b9 163e f60e 95bc

sequential/net/while/gru_cell/MatMul_4 f4 [20, 20]
0.15168893 -0.20619254 -0.21840976 -0.14987706 -0.11175012 0.0030332813 -0.10331629 -0.33272442
0.48254222 0.34315422 0.0035786733 0.0054237386 0.043239772 0.060978446 -0.032844283 -0.46846324
0.01783928 -0.088637374 0.07934106 -0.25426835 -0.12796003 0.16491231 0.034933586 0.020844186
-0.06821493 0.16427843 -0.14676824 -0.18067428 -0.016080985 0.011331648 -0.09692439 -0.27457133
0.022164565 -0.17733307 0.12863433 -0.24487089 -0.041897975 0.10188783 -0.05889056 0.18712355
-0.024431739 0.041048624 0.20249169 -0.04485694 0.02087349 0.06067166 -0.2623126 -0.06834266
-0.36827216 -0.09426743 0.20442261 -0.15440387 -0.27326593 0.14921892 -0.123441115 0.19910945
-0.22021866 -0.0011003636 -0.070515655 0.39921412 0.1485602 0.09704709 -0.060101047 -0.057392687
0.09448503 -0.20913848 -0.15637778 -0.2526315 0.35933676 -0.28591722 0.3322497 0.14249803
0.23406021 -0.12805605 0.24423319 -0.12871109 -0.21951279 -0.13575846 -0.26132724 0.20757103
0.16042112 0.10079374 0.010453662 0.15084872 -0.20638995 -0.022729417 -0.018189562 -0.10997566
0.018618774 0.15289344 -0.18455492 -0.01044414 -0.17565253 -0.04360602 0.20347975 0.09602501
0.05668157 -0.026931182 -0.016146308 0.12601778 0.072436705 -0.10635591 -0.21940544 0.2451709
-0.19401716 0.17389269 -0.1676999 -0.17363144 -0.16696665 -0.18707578 0.36183816 0.027294882
-0.039618302 -0.014907056 0.026232196 -0.033430208 0.09505362 -0.20627977 0.07444262 0.07762913
0.18695363 -0.029353123 0.09602028 -0.5339097 0.04823354 -0.06537326 0.003578972 0.117002405
-0.29715306 0.061715446 0.04114234 0.1839785 0.22046863 0.02296659 -0.13611193 -0.044403184
0.008689374 0.09726507 -0.19126531 -0.019875253 -0.07075209 -0.14619595 -0.28614205 -0.0847931
0.008732647 -0.17128958 0.10127099 0.022270594 0.28561077 -0.011306199 -0.22103636 -0.081331186
-0.0031654448 -0.07894986 -0.25680608 -0.44071904 -0.061878894 -0.012239289 0.042896666 -0.30899137
-0.09127599 -0.27295092 -0.23421644 0.49135977 -0.21942078 0.16604508 0.19214997 0.012033991
-0.07098595 -0.15316448 0.28263977 -0.4807284 -0.3295777 -0.075259954 -0.03705464 -0.15444705
0.14144109 0.20075817 0.27158338 -0.23144162 0.021132741 0.069408886 -0.18043263 0.07826181
-0.07112808 0.05234696 0.09184881 -0.009108497 -0.30854422 0.2909011 0.19368139 -0.20014513
-0.013124005 0.0925471 -0.1716614 0.0049097957 -0.30018035 0.17439583 0.13661857 0.09459788
-0.22633415 0.101038896 -0.114350244 0.29418284 -0.099897295 0.4632049 -0.13957015 -0.12630409
-0.07252871 -0.36339688 0.33790743 -0.056969095 0.003651456 0.10157047 -0.18023609 -0.20834869
-0.16687438 0.1866479 0.19131082 -0.25695533 -0.12135338 0.22306973 0.12059732 0.210771
-0.028585993 -0.12008293 -0.35379156 -0.06327284 -0.24765188 -0.28926766 0.2001672 -0.3132652
-0.29099542 -0.038701523 -0.058173444 0.29998243 -0.24861312 -0.24844594 -0.0064309337 0.0002358035
0.21353738 0.20107637 0.14385319 0.116212994 0.00066847785 -0.118550256 0.006267598 -0.11218478
-0.33875766 -0.2012046 -0.054827485 -0.0020361212 -0.12875918 -0.08375001 0.027830364 0.122578345
00000000: 5854 1b3e 2324 53be cfa6 5fbe 5f79 19be
00000010: 3fdd e4bd 04ca 463b 7e97 d3bd db5a aabe
00000020: c60f f73e e9b1 af3e 2d88 6a3b 9eb9 b13b
00000030: 301c 313d 89c4 793d ba87 06bd 6ada efbe
00000040: af23 923c 8387 b5bd 917d a23d 762f 82be
00000050: f407 03be c6de 283e 8516 0f3d 6dc1 aa3c
00000060: 45b4 8bbd 9b38 283e 6a4a 16be ae02 39be
00000070: 45bc 83bc 60a8 393c 4b80 c6bd 9d94 8cbe
00000080: 7692 b53c cd96 35be b8b8 033e 6fbf 7abe
00000090: 369d 2bbd 91aa d03d 3a37 71bd 519d 3f3e
000000a0: 1225 c8bc 9a22 283d fb59 4f3e e9bb 37bd
000000b0: e2fe aa3c d982 783d d64d 86be 3df7 8bbd
000000c0: 2b8e bcbe 480f c1bd 2954 513e 0c1c 1ebe
000000d0: 83e9 8bbe d8cc 183e b2ce fcbd 59e3 4b3e
000000e0: 0081 61be 133a 90ba 836a 90bd cb65 cc3e
000000f0: 2a20 183e a0c0 c63d 842c 76bd 9814 6bbd
00000100: 5e81 c13d 6628 56be 7f21 20be ea58 81be
00000110: fdfa b73e be63 92be a21c aa3e 01eb 113e
00000120: 7bad 6f3e 2021 03be 4418 7a3e d7cc 03be
00000130: f6c7 60be 4404 0bbe afcc 85be 808d 543e
00000140: 6f45 243e f36c ce3d d645 2b3c 1678 1a3e
00000150: e357 53be 0b33 babc 4702 95bc eb3a e1bd
00000160: 6686 983c 1990 1c3e f7fb 3cbe e61d 2bbc
00000170: 42de 33be 3a9c 32bd ff5c 503e c3a8 c43d
00000180: ef2a 683d c89e dcbc 4345 84bc ce0a 013e
00000190: b259 943d 21d1 d9bd d2ab 60be 150e 7b3e
000001a0: 6fac 46be ed10 323e 86b9 2bbe 71cc 31be
000001b0: 4ef9 2abe cb90 3fbe da42 b93e 8499 df3c
000001c0: cd46 22bd b93c 74bc e7e4 d63c 1dee 08bd
000001d0: 79ab c23d 013b 53be 5f75 983d 05fc 9e3d
000001e0: c670 3f3e f675 f0bc 48a6 c43d 4eae 08bf
000001f0: 8890 453d 6ae2 85bd 308d 6a3b f59e ef3d
00000200: 7224 98be 56c9 7c3d df84 283d dc64 3c3e
00000210: 87c2 613e 6e24 bc3c ed60 0bbe 1de0 35bd
00000220: e05d 0e3c e932 c73d 0edb 43be 6dd1 a2bc
00000230: 79e6 90bd 64b4 15be 3681 92be 01a8 adbd
00000240: 6013 0f3c 8966 2fbe 2a67 cf3d d270 b63c
00000250: 933b 923e a33d 39bc 5b57 62be f790 a6bd
00000260: 5a73 4fbb 77b0 a1bd 167c 83be eda5 e1be
00000270: b974 7dbd 4c87 48bc 6ab4 2f3d 1e34 9ebe
00000280: e8ee babd 39c0 8bbe 6fd6 6fbe 8293 fb3e
00000290: d7af 60be b907 2a3e f6c2 443e 372a 453c
000002a0: 1561 91bd 26d7 1cbe 29b6 903e 0822 f6be
000002b0: 69be a8be e421 9abd 9bc6 17bd 5e27 1ebe
000002c0: efd5 103e 8d93 4d3e fa0c 8b3e 08ff 6cbe
000002d0: 921e ad3c 3f26 8e3d 55c3 38be ba47 a03d
000002e0: 99ab 91bd c469 563d 3b1b bc3d ce3b 15bc
000002f0: 82f9 9dbe fdf0 943e 6a54 463e d8f2 4cbe
00000300: 1106 57bc 5589 bd3d 02c8 2fbe 5ae2 a03b
00000310: 3db1 99be d294 323e bde5 0b3e 89bc c13d
00000320: 24c4 67be 7bed ce3d 7630 eabd 229f 963e
00000330: f496 ccbd 3129 ed3e 7aeb 0ebe dc55 01be
00000340: ef89 94bd 280f babe 3402 ad3e 6d58 69bd
00000350: 444d 6f3b 2e04 d03d cf8f 38be 5c59 55be
00000360: 1ee1 2abe a120 3f3e fce6 433e a68f 83be
00000370: 1f88 f8bd 646c 643e bafb f63d 5ad4 573e
00000380: 2c2d eabc 0aee f5bd 2b24 b5be 3195 81bd
00000390: 7498 7dbe e41a 94be a1f8 4c3e 4c64 a0be
000003a0: 5afd 94be 7d85 1ebd 4747 6ebd 4c97 993e
000003b0: 7094 7ebe 9d68 7ebe 95ba d2bb 0542 7739
000003c0: 8ba9 5a3e f7e6 4d3e 404e 133e 1401 ee3d
000003d0: ca3c 2f3a 7aca f2bd 6c60 cd3b 22c1 e5bd
000003e0: a571 adbe 9408 4ebe c992 60bd 7270 05bb
000003f0: 72d9 03be 2085 abbd 81fc e33c 5b0a fb3d

sequential/net/while/gru_cell/MatMul_5 f4 [20, 20]
0.155154 0.44319957 -0.01517513 -0.22482124 0.029635029 -0.3166615 0.10248055 0.039565664
-0.24682236 0.092094846 0.05488098 -0.2023706 -0.27725342 0.1255844 0.01348475 0.1913302
-0.2031586 -0.043115713 0.05003126 0.27392223 0.0919938 -0.009464883 0.15750885 -0.39050466
-0.15617295 0.05894391 -0.06568054 0.022494508 -0.31177512 0.053959675 0.3337008 -0.083372764
-0.27834308 -0.26107916 -0.23096581 0.05421816 -0.23265444 -0.020422142 -0.08662557 0.010149857
-0.28183416 0.066254295 0.14367424 0.2782765 -0.22045384 0.10869823 0.03336464 0.30327457
0.085194856 -0.4468684 0.009852439 0.08642611 -0.1458753 0.2708226 0.018972598 0.08658154
0.23489995 -0.12146189 0.32064462 -0.24676384 -0.14500414 -0.38735822 0.064476244 0.028417872
0.34507385 0.40267307 0.08030357 -0.19294432 -0.117854334 -0.4388898 -0.14455076 0.09101716
-0.06475294 0.16232419 -0.21463068 0.14276813 0.26556313 -0.27303898 -0.18279146 -0.4157094
-0.014393907 -0.21501443 0.027395047 -0.41828892 0.12035518 -0.07444765 -0.14582787 0.15024182
0.04053697 0.15003325 -0.093464434 -0.25967363 0.08096043 0.3203039 0.08205565 0.21655264
0.3975839 0.029826874 -0.019900696 -0.04140224 0.3354019 -0.38104907 -0.07550638 -0.20015642
-0.2662886 -0.056230605 0.361244 -0.09567933 0.48103234 -0.16836052 -0.39746732 0.14743586
0.13185333 -0.271273 -0.22480962 -0.089874424 -0.120359056 0.023889132 0.22221728 -0.07356254
0.023873921 0.39432865 -0.0215045 -0.12081293 -0.10070752 -0.29419747 0.037848387 -0.181115
0.0017699955 0.25217894 -0.18361008 -0.15363206 0.20076278 0.05597593 0.13146287 0.21658108
-0.0030297723 0.22453602 -0.15825363 0.24792263 0.2071805 0.391228 0.05987281 0.43392423
0.2665652 0.25723246 -0.1025074 0.052051976 0.093632735 0.17743602 0.08235848 0.30807716
-0.0034027789 -0.17395042 0.067274675 -0.046874687 -0.06351769 0.04384329 0.085192844 0.04665401
0.14878571 -0.29233032 -0.3306109 0.40516153 0.16970256 -0.3482498 0.1333403 0.19890256
0.011607005 0.16024648 -0.090096325 -0.1062336 -0.31810072 -0.21524037 -0.12763663 -0.31106153
-0.1842656 -0.13413496 -0.23844321 -0.5387221 0.47517484 0.28501752 0.25999284 -0.0004027456
0.1733832 0.20383199 0.19180636 -0.40063173 0.34153822 0.24671389 0.2785462 -0.04087352
-0.25184894 0.26680955 -0.46685228 0.09665174 -0.064665884 -0.012745412 -0.07071832 -0.017087877
0.27566093 0.007419763 0.048813324 0.3352649 -0.35505882 0.44986767 -0.15065968 0.332938
0.024392871 -0.4737926 0.35777506 -0.0056876475 0.2734173 0.14219211 -0.40306795 0.08625514
-0.06917993 0.105874725 0.19560207 -0.27098727 -0.38025513 0.26031595 0.19579539 0.0070465896
0.13021603 -0.108627476 -0.068902954 -0.14329425 0.111506656 -0.4674304 -0.31133074 0.09706964
-0.2564196 -0.5583674 -0.06357232 0.0286257 -0.06978897 0.07473913 0.000102947975 -0.12610967
0.041005656 0.6784194 -0.15773918 0.39113685 -0.3247125 -0.003572286 0.11408017 -0.20079441
0.014790729 0.21653116 0.1738318 0.043206576 0.04352512 -0.30059478 -0.15765679 -0.078569606
00000000: b1e0 1e3e 0eeb e23e 1ca1 78bc 8a37 66be
00000010: 29c5 f23c 7521 a2be 53e1 d13d 9b0f 223d
00000020: 00bf 7cbe 399c bc3d e1ca 603d 3d3a 4fbe
00000030: 29f4 8dbe 3299 003e 24ef 5c3c 10ec 433e
00000040: cf08 50be 1a9a 30bd 94ed 4c3d 893f 8c3e
00000050: 3f67 bc3d 9912 1bbc 004a 213e 3af0 c7be
00000060: cdeb 1fbe 2b6f 713d 8583 86bd 6746 b83c
00000070: fda0 9fbe d204 5d3d d5da aa3e 57bf aabd
00000080: fc82 8ebe 2bac 85be 4d82 6cbe dd13 5e3d
00000090: f73c 6ebe 564c a7bc bf68 b1bd 964b 263c
000000a0: 914c 90be 55b0 873d 571f 133e 427a 8e3e
000000b0: a7be 61be 2d9d de3d 5ca9 083d ce46 9b3e
000000c0: a47a ae3d efcb e4be 206c 213c 2c00 b13d
000000d0: 5660 15be 43a9 8a3e 6c6c 9b3c aa51 b13d
000000e0: 9d89 703e 03c1 f8bd 882b a43e a9af 7cbe
000000f0: f77b 14be d153 c6be 1f0c 843d 99cc e83c
00000100: 85ad b03e 2a2b ce3e 3376 a43d 3293 45be
00000110: 9d5d f1bd 2ab6 e0be 1d05 14be 3467 ba3d
00000120: 309d 84bd 5038 263e 25c8 5bbe cf31 123e
00000130: e4f7 873e c4cb 8bbe af2d 3bbe ddd7 d4be
00000140: 6cd4 6bbc be2c 5cbe 946b e03c f729 d6be
00000150: c77c f63d 0278 98bd e753 15be fed8 193e
00000160: 180a 263d 51a2 193e 486a bfbd f1f3 84be
00000170: 95ce a53d dffe a33e cb0c a83d fabf 5d3e
00000180: 1e90 cb3e 7d57 f43c c906 a3bc 6595 29bd
00000190: ccb9 ab3e dd18 c3be 17a3 9abd cef5 4cbe
000001a0: fb56 88be 1052 66bd f9f4 b83e 86f3 c3bd
000001b0: df49 f63e b366 2cbe d680 cbbe 6df9 163e
000001c0: 8f04 073e 4be4 8abe 7e34 66be 1510 b8bd
000001d0: cf7e f6bd 24b3 c33c ed8c 633e f5a7 96bd
000001e0: 3e93 c33c 72e5 c93e 352a b0bc c56c f7bd
000001f0: bf3f cebd 0da1 96be e906 1b3d 3676 39be
00000200: 32ff e73a 991d 813e 4804 3cbe b951 1dbe
00000210: c294 4d3e 0447 653d 349e 063e 6ec7 5d3e
00000220: 258f 46bb c5ec 653e 3d0d 22be 6edf 7d3e
00000230: 2027 543e 094f c83e 313d 753d 512b de3e
00000240: 3c7b 883e f9b3 833e 66ef d1bd 7434 553d
00000250: 85c2 bf3d cab1 353e 90ab a83d 4abc 9d3e
00000260: 2801 5fbb 0f20 32be 4ec7 893d acff 3fbd
00000270: 9015 82bd 0695 333d 9679 ae3d 4618 3f3d
00000280: 485b 183e 52ac 95be d545 a9be 5571 cf3e
00000290: 82c6 2d3e cc4d b2be 5c8a 083e 1dad 4b3e
000002a0: 4f2b 3e3c a717 243e 6c84 b8bd 0091 d9bd
000002b0: 19de a2be f967 5cbe 2db3 02be 7543 9fbe
000002c0: 1fb0 3cbe ad5a 09be 752a 74be b1e9 09bf
000002d0: 1e4a f33e d1ed 913e c81d 853e 9927 d3b9
000002e0: 5e8b 313e 55b9 503e e368 443e 9a1f cdbe
000002f0: 19de ae3e 91a2 7c3e 9c9d 8e3e fe6a 27bd
00000300: 58f2 80be 439b 883e 4307 efbe 59f1 c53d
00000310: 8c6f 84bd 22d2 50bc c4d4 90bd e0fb 8bbc
00000320: 6e23 8d3e 7c21 f33b 7bf0 473d d7a7 ab3e
00000330: 45ca b5be 0e55 e63e 8846 1abe d976 aa3e
00000340: 8fd3 c73c f294 f2be 4b2e b73e 725f babb
00000350: 5afd 8b3e cf9a 113e ec5e cebe 89a6 b03d
00000360: 35ae 8dbd d9d4 d83d e94b 483e d8be 8abe
00000370: cdb0 c2be 2248 853e 967e 483e 14e7 e63b
00000380: 5a57 053e 1578 debd fe1c 8dbd babb 12be
00000390: 9a5d e43d 0a53 efbe be66 9fbe 73cc c63d
000003a0: 6e49 83be 2af1 0ebf 3432 82bd 7280 ea3c
000003b0: 85ed 8ebd d410 993d c6e5 d738 e522 01be
000003c0: 8cf5 273d e5ac 2d3f 6186 21be 1743 c83e
000003d0: b840 a6be 041d 6abb dda2 e93d 0d9d 4dbe
000003e0: d054 723c 58ba 5d3e f700 323e 61f9 303d
000003f0: 6547 323d 8fe7 99be c870 21be 1ae9 a0bd

sequential/net/while/gru_cell/MatMul f4 [20, 13]
0.41889995 -0.11826453 -0.096156895 0.2174423 -0.50077575 0.07084608 0.4588817 -0.13323009
0.14706695 -0.24476792 0.13391791 0.12327981 0.051073097 -0.057311486 0.037329633 0.09831046
-0.08305466 0.20854722 0.08592209 0.07930623 0.038061585 0.37015826 0.13060889 0.04324347
-0.2026792 -0.06744862 0.15328503 0.042998727 0.14717501 0.16141546 -0.30917823 -0.05703307
-0.16313401 -0.14478013 0.08819437 0.03032016 0.12031394 -0.36104083 -0.121831335 0.011347312
-0.06823167 0.17936371 -0.24653943 0.11241282 0.030994538 0.07743791 0.06562253 0.12678759
0.13584079 -0.22558641 0.1662616 0.039150707 0.069296904 0.059205018 0.09566474 0.10978049
0.11038019 0.21370281 -0.34713182 -0.5411925 -0.48599085 0.29762885 0.1931638 -0.1561058
-0.15818454 0.21959247 -0.014579593 -0.13823463 0.02153315 -0.15371755 -0.113955356 0.24715392
0.44119924 -0.13187297 -0.09648004 0.14610218 0.31219465 0.11132333 0.048384957 0.018319936
0.043322265 0.031794522 -0.07830187 -0.35952833 -0.11925264 0.588912 0.13068704 -0.12114324
0.085181765 0.14929654 0.04565475 0.12720104 0.033553693 -0.19854799 0.28937873 -0.041551344
0.16383462 -0.25029588 -0.24705848 -0.31768352 0.2453176 0.07635335 -0.26646507 0.023496522
-0.22244471 -0.039508548 0.20791976 0.2592213 -0.20559815 0.47779593 0.1884914 -0.593538
-0.5722633 0.118589275 -0.08750071 0.10883081 0.14514099 0.09032687 0.013485486 -0.030863311
-0.20852509 0.0025937234 0.40029404 0.23879564 -0.11777388 0.050453413 -0.107018374 -0.14740887
0.075437754 -0.06263385 -0.26687965 -0.03050595 0.1695146 0.00900212 -0.004182845 0.1570857
-0.13805605 -0.37008557 0.14332433 0.19465855 -0.061977733 -0.029199345 -0.009565591 0.02742323
-0.03686341 -0.09266627 0.12800866 0.16424888 0.27781332 -0.18021056 -0.25671512 -0.08965107
0.02065542 0.15051246 -0.017119395 0.10708095 -0.024999125 0.076619826 0.37338355 0.117476955
0.07594586 -0.22482125 -0.4457216 -0.20754005 -0.28929716 0.46992698 0.13895202 -0.3794366
-0.054786537 -0.06855435 -0.06330035 -0.07008913 -0.29207286 -0.03135219 0.38563433 -0.045894325
0.17707461 0.29459488 -0.2278423 -0.3162579 0.36594212 0.11438264 0.010477895 -0.074052475
0.057221875 0.19253649 0.11239166 -0.09724932 0.02514754 0.009217305 -0.072937116 0.09316764
0.05758377 0.15248747 -0.13619386 -0.27780312 0.035392344 0.16051418 0.11181312 0.019661577
-0.3633293 -0.15714803 0.029411437 0.42685935 0.2032122 -0.15921687 -0.045498088 0.18022476
-0.21460713 -0.06273469 0.06339503 0.07926203 0.1327865 0.12848574 -0.082496494 -0.18129586
-0.29877004 -0.09384707 0.030928107 0.06732807 0.016978692 -0.08282499 -0.05342833 0.14016345
0.15717338 0.10926665 -0.043889567 -0.28869775 0.05620563 0.3876364 0.24893877 -0.2228184
-0.29087496 -0.30984956 -0.0334927 0.071819395 0.10676923 0.011653269 0.43090686 0.10031161
-0.14747316 0.019753791 -0.14907908 0.19033508 0.34064078 0.22223796 -0.52141905 0.013288154
-0.028003577 -0.2528977 -0.06129153 0.17294148 0.0285994 -0.05593653 0.21034133 -0.12667683
00000000: 0e7a d63e ad34 f2bd e8ed c4bd 32a9 5e3e
00000010: d732 00bf c017 913d 8bf2 ea3e 786d 08be
00000020: b898 163e 71a4 7abe c721 093e 207a fc3d
00000030: 0632 513d 73bf 6abd f5e6 183d ff56 c93d
00000040: 9018 aabd 678d 553e ecf7 af3d 4e6b a23d
00000050: 77e6 1b3d 6285 bd3e 56be 053e 1120 313d
00000060: 238b 4fbe 8122 8abd c0f6 1c3e 6f1f 303d
00000070: 0cb5 163e 184a 253e 9c4c 9ebe 829b 69bd
00000080: 9a0c 27be 3e41 14be 409f b43d fc61 f83c
00000090: 2867 f63d 58da b8be b582 f9bd 13ea 393c
000000a0: 0cbd 8bbd 1fab 373e d574 7cbe b138 e63d
000000b0: 42e8 fd3c c497 9e3d 1b65 863d 9bd4 013e
000000c0: d919 0b3e 2000 67be 7b40 2a3e 7e5c 203d
000000d0: 89eb 8d3d f680 723d e0eb c33d 98d4 e03d
000000e0: 020f e23d e9d4 5a3e 43bb b1be 978b 0abf
000000f0: cbd3 f8be cf62 983e bbcc 453e 33da 1fbe
00000100: 21fb 21be d9dc 603e 3fdf 6ebc 618d 0dbe
00000110: 4a66 b03c 2268 1dbe 6d61 e9bd eb15 7d3e
00000120: dee4 e13e b509 07be 5497 c5bd cf9b 153e
00000130: fad7 9f3e 7cfd e33d 4e2f 463d b113 963c
00000140: b072 313d f93a 023d bb5c a0bd 1914 b8be
00000150: ba3a f4bd f0c2 163f d3d2 053e f219 f8bd
00000160: c773 ae3d 31e1 183e 7a00 3b3d fd40 023e
00000170: 996f 093d 2a50 4bbe 7329 943e be31 2abd
00000180: 43c4 273e c826 80be e6fc 7cbe 6aa7 a2be
00000190: 8934 7b3e 255f 9c3d 1c6e 88be c77b c03c
000001a0: 8cc8 63be b7d3 21bd ebe8 543e a7b8 843e
000001b0: 5288 52be aba1 f43e e403 413e 1bf2 17bf
000001c0: d97f 12bf efde f23d 9233 b3bd b0e2 de3d
000001d0: d79f 143e 4bfd b83d 3af2 5c3c 0ed5 fcbc
000001e0: 9a87 55be 75fb 293b 57f3 cc3e d886 743e
000001f0: 6f33 f1bd 3da8 4e3d 732c dbbd 5af2 16be
00000200: 1c7f 9a3d 2d46 80bd 73a4 88be 9de7 f9bc
00000210: 3c95 2d3e a17d 133c 3f10 89bb 13db 203e
00000220: 915e 0dbe db7b bdbe 9dc3 123e 9254 473e
00000230: 5ddc 7dbd 7733 efbc ffb8 1cbc afa6 e03c
00000240: 16fe 16bd d0c7 bdbd b414 033e dc30 283e
00000250: 8c3d 8e3e 1e89 38be 2a70 83be fb9a b7bd
00000260: 8e35 a93c f01f 1a3e f93d 8cbc 424d db3d
00000270: f7ca ccbc dbea 9c3d 212c bf3e c297 f03d
00000280: 8189 9b3d 8b37 66be 9f35 e4be 6185 54be
00000290: c21e 94be 459a f03e 7049 0e3e 8445 c2be
000002a0: d967 60bd 3966 8cbd 9da3 81bd e48a 8fbd
000002b0: 938a 95be 276b 00bd dd71 c53e b0fb 3bbd
000002c0: 0c53 353e 24d5 963e 7e4f 69be 8eec a1be
000002d0: c45c bb3e 7241 ea3d 7aab 2b3c d3a8 97bd
000002e0: 7c61 6a3d 4928 453e 992d e63d a72a c7bd
000002f0: 3702 ce3c 2e04 173c 0e60 95bd adce be3d
00000300: f6dc 6b3d ad25 1c3e 6776 0bbe 363c 8ebe
00000310: 90f7 103d d45d 243e 47fe e43d 5111 a13c
00000320: 4c06 babe 6aeb 20be 41f0 f03c 4f8d da3e
00000330: dc16 503e bf09 23be 345c 3abd d78c 383e
00000340: f9c1 5bbe 0c7b 80bd 41d5 813d 2254 a23d
00000350: 2ff9 073e c491 033e ecf3 a8bd 9fa5 39be
00000360: 63f8 98be e532 c0bd f15c fd3c 4de3 893d
00000370: e616 8b3c 26a0 a9bd aad7 5abd 0287 0f3e
00000380: 0ff2 203e 32c7 df3d 8cc5 33bd 31d0 93be
00000390: e037 663d 4778 c63e cee9 7e3e 822a 64be
000003a0: 90ed 94be 9aa4 9ebe a42f 09bd 0c16 933d
000003b0: d3a9 da3d 5aed 3e3c d39f dc3e 2c70 cd3d
000003c0: 3403 17be b4d2 a13c 30a8 18be 33e7 423e
000003d0: 7868 ae3e 5992 633e b87b 05bf 8fb6 593c
000003e0: c267 e5bc cf7b 81be d40c 7bbd 9217 313e
000003f0: 4a49 ea3c b41d 65bd b863 573e 92b7 01be

sequential/net/while/gru_cell/MatMul_1 f4 [20, 13]
-0.1417486 -0.08266938 -0.046764813 -0.102761716 0.053353205 0.20735875 0.1335829 0.5804453
0.14564748 -0.113258265 -0.15597901 -0.042836357 0.3289385 -0.16296098 -0.11419996 0.12506557
0.054524336 0.25991648 0.0527352 0.07758228 -0.39424884 -0.18581675 0.18141651 0.16493605
0.11338377 0.136406 -0.33954096 0.1760989 0.3042373 -0.2846769 -0.17131585 -0.04882276
0.036687784 -0.1766278 -0.2494817 0.060839444 -0.21514662 -0.32639754 0.11852459 0.17106345
-0.06998748 0.09564454 -0.14982125 -0.22382705 0.03848971 0.17573938 0.10305188 0.07857931
0.028432483 -0.27207357 0.09494692 0.032155514 0.092949115 0.09056556 -0.03014177 0.11250231
0.17653403 -0.32961285 -0.032651246 0.2274979 -0.45114866 -0.21151306 0.42940724 -0.1741907
-0.23851813 0.087644726 -0.06713453 -0.5832907 -0.4285643 -0.29022706 0.029416401 0.3782602
0.51827854 0.46269146 -0.34337986 -0.2138768 -0.020118328 0.16640933 -0.31103703 0.21978886
0.059889857 -0.023160446 0.08962807 -0.3886793 -0.29764897 0.24322608 0.39741507 0.28772697
-0.20679712 -0.2762171 0.13304995 -0.056885127 0.058678 0.32477808 -0.103242494 -0.3731751
-0.23560001 0.06318101 0.007598272 -0.079717845 0.28676757 0.63565916 -0.27500334 -0.1526045
0.15540887 -0.028938383 0.23117866 -0.11368493 -0.038413074 -0.056468785 -0.17842937 -0.38960612
0.3435317 0.105479 -0.21373601 0.3541784 0.24626759 -0.045412447 0.09543794 -0.07041594
-0.34089968 0.19446293 0.49040177 -0.07642386 -0.31651664 -0.16978632 -0.1866075 0.084471986
-0.21182784 0.09660216 -0.2779816 0.012474006 -0.08775995 -0.09661421 0.18852107 0.07761598
-0.106137775 0.34969717 -0.03866706 0.22827812 0.14131334 0.031549793 -0.44243923 0.07984775
-0.028724862 -0.28763413 -0.04195909 0.032855105 0.24835284 0.13874426 -0.10702053 -0.07249024
-0.18813583 -0.07153214 0.121833414 0.047025647 0.016697668 0.02511687 0.050170187 0.32720613
-0.21869963 -0.24299067 -0.18857805 -0.18195346 -0.23917595 0.057318937 -0.04099565 -0.44520274
-0.046117343 0.069164716 0.04648941 -0.1395524 -0.054537628 0.13606551 0.29874843 -0.022289736
-0.5044267 -0.298388 0.09071172 0.11155322 -0.08829414 0.019252561 -0.12259002 0.035274334
-0.29399338 -0.14313792 0.05692739 0.25890344 0.27457616 0.23314515 0.26465532 -0.3478356
-0.14434218 0.2755579 0.069440566 0.021482836 -0.040948555 -0.16714318 -0.29533246 -0.03696375
-0.26970255 -0.21216069 1.0009387 0.45456564 -0.11905124 -0.3042376 0.0231601 -0.31659144
0.004611052 0.009337384 -0.010385728 0.010309422 -0.17787898 0.0025980165 0.11489284 0.25896528
0.12932107 -0.2797893 -0.16974849 0.10908178 -0.27399257 0.019906702 0.07740092 -0.13807221
0.33199853 -0.07674041 -0.00068409415 0.081130885 -0.006802521 0.107625656 0.37967837 -0.30680516
-0.28441003 0.15889773 -0.37304866 0.07148293 -0.0030889353 0.25991324 -0.18633726 0.055796288
-0.32986403 -0.23445071 -0.5181693 -0.022196826 -0.521009 0.08964005 -0.17690894 -0.41497362
0.028849188 0.2879069 0.2276563 0.13227105 -0.07170208 -0.11515297 0.25587907 0.44333756
00000000: 8c26 11be 904e a9bd 768c 3fbd bc74 d2bd
00000010: e488 5a3d da55 543e f5c9 083e 1098 143f
00000020: 9d24 153e f3f3 e7bd f6b8 1fbe 2d75 2fbd
00000030: a16a a83e 3edf 26be abe1 e9bd 3011 003e
00000040: e954 5f3d c613 853e dd00 583d 75e3 9e3d
00000050: fcda c9be bf46 3ebe 40c5 393e ffe4 283e
00000060: c035 e83d 04ae 0b3e 50d8 adbe 4553 343e
00000070: fec4 9b3e 2cc1 91be 6c6d 2fbe 60fa 47bd
00000080: ee45 163d ebdd 34be 2178 7fbe c832 793d
00000090: 654f 5cbe 941d a7be 05bd f23d 422b 2f3e
000000a0: 9955 8fbd 49e1 c33d be6a 19be eb32 65be
000000b0: 63a7 1d3d 06f5 333e dd0c d33d 30ee a03d
000000c0: 3deb e83c 3a4d 8bbe 8873 c23d 80b5 033d
000000d0: 1b5c be3d 707a b93d e0eb f6bc 9c67 e63d
000000e0: 56c5 343e 04c3 a8be 50bd 05bd 36f5 683e
000000f0: f5fc e6be e196 58be 44db db3e 0c5f 32be
00000100: 193e 74be 147f b33d d47d 89bd 8a52 15bf
00000110: c86c dbbe a498 94be aafa f03c 52ab c13e
00000120: e7ad 043f e5e5 ec3e 7ccf afbe 8502 5bbe
00000130: 31cf a4bc 3567 2a3e 3f40 9fbe 5510 613e
00000140: 114f 753d faba bdbc ec8e b73d f900 c7be
00000150: 7265 98be 4210 793e fd79 cb3e f350 933e
00000160: a0c2 53be 546c 8dbe 3f3e 083e 6100 69bd
00000170: 5858 703d 5049 a63e cd70 d3bd cf10 bfbe
00000180: 2141 71be 0c65 813d edfa f83b 1c43 a3bd
00000190: 33d3 923e 8fba 223f 3dcd 8cbe 5b44 1cbe
000001a0: 8123 1f3e 3010 edbc 19ba 6c3e a5d3 e8bd
000001b0: 0757 1dbd d04b 67bd 30b6 36be 747a c7be
000001c0: 63e3 af3e 6005 d83d 9ddd 5abe df56 b53e
000001d0: 922d 7c3e 6702 3abd f774 c33d 3b36 90bd
000001e0: 678a aebe 4a21 473e f115 fb3e 1d84 9cbd
000001f0: 780e a2be 77dc 2dbe 0916 3fbe a6ff ac3d
00000200: 66e9 58be 5ad7 c53d 9b53 8ebe c65f 4c3c
00000210: 7dbb b3bd acdd c5bd ab0b 413e 20f5 9e3d
00000220: c35e d9bd 820b b33e 5a61 1ebd bdc1 693e
00000230: 72b4 103e 5b3a 013d 6587 e2be 3887 a33d
00000240: 6750 ebbc c844 93be 4bdd 2bbd 1393 063d
00000250: 3550 7e3e fa12 0e3e 942d dbbd c375 94bd
00000260: aea6 40be 717f 92bd cc83 f93d f79d 403d
00000270: 8cc9 883c e5c1 cd3c 417f 4d3d 9087 a73e
00000280: ccf2 5fbe 8cd2 78be 9b1a 41be 0252 3abe
00000290: 8aea 74be 43c7 6a3d 0eeb 27bd 9df1 e3be
000002a0: 8ae5 3cbd 3ba6 8d3d ae6b 3e3d d3e6 0ebe
000002b0: d962 5fbd c254 0b3e 8ef5 983e f798 b6bc
000002c0: 1c22 01bf 50c6 98be 11c7 b93d 0476 e43d
000002d0: 8fd3 b4bd 8cb7 9d3c 7a10 fbbd d27b 103d
000002e0: 4d86 96be bf92 12be b22c 693d fe8e 843e
000002f0: 3f95 8c3e 9abd 6e3e e780 873e 8217 b2be
00000300: 70ce 13be ed15 8d3e db36 8e3d c6fc af3c
00000310: acb9 27bd 9527 2bbe d135 97be 4d67 17bd
00000320: 7416 8abe a740 59be c21e 803f d4bc e83e
00000330: 23d1 f3bd 08c5 9bbe 40ba bd3c 4618 a2be
00000340: 4f18 973b d4fb 183c e728 2abc dae8 283c
00000350: e825 36be 7c43 2a3b f04c eb3d 1997 843e
00000360: be6c 043e 8b40 8fbe 8cd2 2dbe 4566 df3d
00000370: c148 8cbe 6113 a33c 6084 9e3d cd62 0dbe
00000380: b6fb a93e 132a 9dbd c854 33ba f327 a63d
00000390: afe7 debb d76a dc3d 3465 c23e 9115 9dbe
000003a0: 319e 91be 16b6 223e 3c00 bfbe a465 923d
000003b0: bc6f 4abb 5913 853e 32cf 3ebe a68a 643d
000003c0: f0e3 a8be d913 70be bea6 04bf 1ed6 b5bc
000003d0: d960 05bf 3495 b73d 9e27 35be 6c77 d4be
000003e0: 2255 ec3c 8868 933e bc1e 693e 1072 073e
000003f0: 8ad8 92bd 52d5 ebbd 9502 833e 24fd e23e

sequential/net/while/gru_cell/MatMul_2 f4 [20, 13]
-0.15228969 -0.022890564 0.22103359 0.018285802 0.046968635 -0.06734692 0.15269302 0.34402227
-0.042794697 -0.17104986 -0.08244757 -0.07578081 -0.19177942 0.18072553 -0.04876511 -0.08687276
0.1165512 0.08876812 0.27292675 0.13473155 -0.21233939 0.07200889 -0.15556197 -0.07320573
0.15604483 -0.13612886 0.14620715 0.051061515 0.057161126 0.03826339 0.112093136 -0.17571394
-0.1406107 0.24657446 0.122290894 0.062482376 -0.01626759 0.013238912 -0.068954006 0.24787389
-0.04013365 -0.24136084 -0.14327748 0.07367591 0.21883258 0.12666269 0.10037643 0.22259556
-0.40604115 -0.086339995 -0.15246344 0.0011629767 0.19463068 0.056548785 0.109827064 -0.006829521
-0.47568074 0.03726364 0.1901187 -0.22402842 0.16568124 0.008376015 -0.34371457 -0.033184487
0.17612591 0.22560562 0.111915 -0.31506327 -0.20870711 -0.031291977 0.1495632 0.20372057
-0.187211 0.08362259 -0.4485726 -0.18157278 -0.027968157 -0.06402643 -0.1447659 0.15456761
0.23407948 0.15620688 -0.13551557 -0.0837706 -0.1393906 -0.23498173 0.08113434 0.07110898
-0.021789335 0.034084786 0.09931358 -0.2763126 0.0035384619 -0.24433124 0.23257117 -0.03640519
0.31807223 0.06386979 0.019847676 0.03182072 -0.030077 0.020941472 -0.26366752 0.13146314
-0.13058655 -0.1336602 -0.09049411 0.249736 -0.108749025 0.09968679 0.31585577 -0.28214017
-0.43964133 0.33177716 0.34912932 0.12028514 -0.036278673 -0.0513082 -0.11432571 -0.21344522
-0.12425589 0.123977736 0.10413455 0.13851431 0.4686271 0.2668536 -0.32304502 -0.22495788
0.059137538 -0.1145432 0.09992623 -0.03034744 -0.14514785 -0.09327751 0.034766287 -0.1225348
-0.05917654 0.12843181 -0.2433734 -0.22573781 0.018942814 -0.1950832 -0.0013730879 -0.15728433
0.02219719 0.21207611 0.21271369 -0.05344896 0.10897097 -0.0472524 -0.3733974 0.06991687
-0.04529542 -0.1573578 0.13473916 0.12838516 -0.17633726 -0.17465326 0.10486737 0.09837181
0.4818369 0.0783394 0.38167673 -0.008065485 -0.22005592 0.50464547 0.5897089 0.003921748
0.09823643 -0.17692702 -0.15733035 -0.19367732 -0.013727066 0.08657081 0.1656358 0.4312154
0.11705648 0.037296657 -0.34424874 0.08578263 0.13435651 -0.064628065 0.051174194 -0.21358135
-0.041105356 0.10346258 0.29588288 -0.20094019 0.2794212 0.16819504 -0.09773765 -0.020504296
0.14145607 0.10454818 0.088060856 -0.11219267 0.14068729 -0.026865 -0.10083392 0.15437081
-0.1899388 -0.05780007 0.0019016373 0.2650052 -0.04585563 0.11478987 -0.3033921 0.031712472
-0.26236227 -0.24549964 0.0513205 0.13713951 0.36400333 0.18579334 0.123155154 0.14923875
-0.22320834 0.15507871 0.20010342 0.118854806 -0.18985772 -0.08310319 0.13878433 -0.01798033
0.243745 0.12220647 -0.48130152 -0.21304724 0.12705207 0.0799634 0.010888996 0.13135082
-0.028246721 0.0060545937 -0.10482856 -0.19101182 -0.005272884 -0.055200297 0.039734013 0.12441392
-0.059528016 -0.11297416 0.28221276 0.1822297 -0.097007714 -0.047242463 0.225378 0.17071377
-0.034687962 -0.0782993 -0.0881278 -0.09220909 0.29401684 0.38417017 -0.12776698 0.35763726
00000000: d4f1 1bbe fe84 bbbc a156 623e 1bcc 953c
00000010: 2f62 403d 2fed 89bd 8f5b 1c3e b023 b03e
00000020: 7e49 2fbd b227 2fbe 46da a8bd f832 9bbd
00000030: d361 44be 1d10 393e edbd 47bd 58ea b1bd
00000040: 65b2 ee3d 0fcc b53d 0ebd 8b3e 11f7 093e
00000050: 7f6f 59be 6679 933d a34b 1fbe e3ec 95bd
00000060: 37ca 1f3e 5d65 0bbe 54b7 153e e125 513d
00000070: c921 6a3d 13ba 1c3d 1691 e53d 5bee 33be
00000080: 40fc 0fbe 047e 7c3e a673 fa3d 85ed 7f3d
00000090: 9c43 85bc 06e8 583c c237 8dbd a7d2 7d3e
000000a0: 2f63 24bd 4c27 77be 55b7 12be 65e3 963d
000000b0: a615 603e ddb3 013e 2892 cd3d 17f0 633e
000000c0: a0e4 cfbe 06d3 b0bd 601f 1cbe 066f 983a
000000d0: 444d 473e b39f 673d 03ed e03d 2dca dfbb
000000e0: 6d8c f3be c2a1 183d 7aae 423e b567 65be
000000f0: 58a8 293e 8e3b 093c 5bfb afbe 75ec 07bd
00000100: 5a5a 343e 2905 673e b133 e53d f94f a1be
00000110: 51b7 55be 042c 00bd 1827 193e 209c 503e
00000120: 3eb4 3fbe 5242 ab3d 4fab e5be 37ee 39be
00000130: 7a1d e5bc 4a20 83bd 833d 14be f946 1e3e
00000140: 88b2 6f3e b2f4 1f3e 98c4 0abe ec8f abbd
00000150: 69bc 0ebe 0d9f 70be c329 a63d 96a1 913d
00000160: 8c7f b2bc 7d9c 0b3d eb64 cb3d d878 8dbe
00000170: 8ae5 673b f831 7abe 2327 6e3e 9c1d 15bd
00000180: 5dda a23e 2ace 823d 9897 a23c 7156 023d
00000190: 0a64 f6bc 738d ab3c 6eff 86be 469e 063e
000001a0: 7bb8 05be 38de 08be fa54 b9bd cbba 7f3e
000001b0: cfb7 debd 9628 cc3d d9b7 a13e ad74 90be
000001c0: ab18 e1be b2de a93e 14c1 b23e 0e58 f63d
000001d0: f298 14bd 8c28 52bd 9923 eabd 6291 5abe
000001e0: df79 febd 0ae8 fd3d 7f44 d53d b2d6 0d3e
000001f0: e4ef ef3e 09a1 883e 2866 a5be 5c5b 66be
00000200: 343a 723d a095 eabd 20a6 cc3d 329b f8bc
00000210: a3a1 14be 4708 bfbd 1867 0e3d 86f3 fabd
00000220: 1963 72bd a183 033e e036 79be d027 67be
00000230: f62d 9b3c e4c3 47be 2ff9 b3ba 250f 21be
00000240: e2d6 b53c 7b2a 593e 9ed1 593e 4ced 5abd
00000250: 2c2c df3d bc8b 41bd f22d bfbe 9330 8f3d
00000260: b187 39bd 6722 21be 10f9 093e 6677 033e
00000270: c191 34be 4ed8 32be b4c4 d63d 2977 c93d
00000280: 53b3 f63e 6870 a03d 226b c33e 1925 04bc
00000290: 5756 61be 7230 013f 2af7 163f 0282 803b
000002a0: 2e30 c93d 5b2c 35be 351b 21be 5953 46be
000002b0: 7de7 60bc 094c b13d 6e9c 293e 44c8 dc3e
000002c0: 4fbb ef3d 61c4 183d 5f41 b0be ceae af3d
000002d0: c194 093e b85b 84bd 089c 513d 12b5 5abe
000002e0: 175e 28bd 30e4 d33d f67d 973e 44c3 4dbe
000002f0: 4c10 8f3e 523b 2c3e ad2a c8bd a0f8 a7bc
00000300: dcd9 103e 5b1d d63d 4059 b43d 45c5 e5bd
00000310: 5410 103e fd13 dcbc 0482 cebd 6213 1e3e
00000320: 517f 42be c4bf 6cbd 5c40 f93a c3ae 873e
00000330: 1dd3 3bbd f416 eb3d 3656 9bbe f0e4 013d
00000340: 5954 86be 4264 7bbe 7235 523d 4d6e 0c3e
00000350: a55e ba3e 9c40 3e3e c538 fc3d 0bd2 183e
00000360: ba90 64be f4cc 1e3e e9e7 4c3e 266a f33d
00000370: 106a 42be 0132 aabd 7b1d 0e3e 7c4b 93bc
00000380: 4a98 793e 6347 fa3d 276d f6be 0e29 5abe
00000390: f019 023e dac3 a33d c267 323c d480 063e
000003a0: ab65 e7bc 9d65 c63b 5bb0 d6bd 9a98 43be
000003b0: 28c8 acbb b519 62bd 22c0 223d bacc fe3d
000003c0: a6d3 73bd ff5e e7bd 317e 903e 6c9a 3a3e
000003d0: fbab c6bd 5081 41bd 7ec9 663e 97cf 2e3e
000003e0: f714 0ebd 625b a0bd 597c b4bd 1fd8 bcbd
000003f0: 6089 963e f4b1 c43e 59d5 02be 3b1c b73e
